…
[[ 117    2    0  314   58  236   19 1264]
 [   0 3487  334  397    6   29   61   64]
 [   0    0 2801  162    0    3    1    4]
 [   0    0    0 3028    0   12   72    0]
 [   0    0    0  314 3009  994   87    0]
 [   0    0    0  135    0 3946    0    0]
 [   0    0    0    2    0    0 3202    0]
 [   0    0    3  304    0  816   34 2845]]

Test accuracy on folder 5
79.66408729553223

Model: "sequential_2"
_________________________________________________________________
 Layer (type)                Output Shape              Param #   
=================================================================
 vgg16 (Functional)          (None, 2, 2, 512)         14714688  
                                                                 
 dropout_6 (Dropout)         (None, 2, 2, 512)         0         
                                                                 
 flatten_2 (Flatten)         (None, 2048)              0         
                                                                 
 batch_normalization_8 (Batc  (None, 2048)             8192      
 hNormalization)                                                 
                                                                 
 dense_8 (Dense)             (None, 32)                65568     
                                                                 
 batch_normalization_9 (Batc  (None, 32)               128       
 hNormalization)                                                 
                                                                 
 activation_6 (Activation)   (None, 32)                0         
                                                                 
 dropout_7 (Dropout)         (None, 32)                0         
                                                                 
 dense_9 (Dense)             (None, 32)                1056      
                                                                 
 batch_normalization_10 (Bat  (None, 32)               128       
 chNormalization)                                                
                                                                 
 activation_7 (Activation)   (None, 32)                0         
                                                                 
 dropout_8 (Dropout)         (None, 32)                0         
                                                                 
 dense_10 (Dense)            (None, 32)                1056      
                                                                 
 batch_normalization_11 (Bat  (None, 32)               128       
 chNormalization)                                                
                                                                 
 activation_8 (Activation)   (None, 32)                0         
                                                                 
 dense_11 (Dense)            (None, 9)                 297       
                                                                 
=================================================================
Total params: 14,791,241
Trainable params: 14,786,953
Non-trainable params: 4,288
_________________________________________________________________

SUMMARY

Mean accuracy
79.03604507446289

F1-Score
77.56079888735982

Precision
81.29585014660142

Recall
79.03604707368676
…
