…
 [   0    0    0    0    0    0    0 4002]]

Test accuracy on folder 5
100.0

Model: "Net50"
__________________________________________________________________________________________________
 Layer (type)                   Output Shape         Param #     Connected to                     
==================================================================================================
 input_1 (InputLayer)           [(None, 48, 48, 3)]  0           []                               
                                                                                                  
 conv1 (Conv2D)                 (None, 46, 46, 8)    224         ['input_1[0][0]']                
                                                                                                  
 bn_conv1 (BatchNormalization)  (None, 46, 46, 8)    32          ['conv1[0][0]']                  
                                                                                                  
 activation (Activation)        (None, 46, 46, 8)    0           ['bn_conv1[0][0]']               
                                                                                                  
 res2a_branch2a (Conv2D)        (None, 46, 46, 32)   288         ['activation[0][0]']             
                                                                                                  
 bn2a_branch2a (BatchNormalizat  (None, 46, 46, 32)  128         ['res2a_branch2a[0][0]']         
 ion)                                                                                             
                                                                                                  
 activation_1 (Activation)      (None, 46, 46, 32)   0           ['bn2a_branch2a[0][0]']          
                                                                                                  
 res2a_branch2b (Conv2D)        (None, 46, 46, 32)   9248        ['activation_1[0][0]']           
                                                                                                  
 bn2a_branch2b (BatchNormalizat  (None, 46, 46, 32)  128         ['res2a_branch2b[0][0]']         
 ion)                                                                                             
                                                                                                  
 activation_2 (Activation)      (None, 46, 46, 32)   0           ['bn2a_branch2b[0][0]']          
                                                                                                  
 res2a_branch1 (Conv2D)         (None, 46, 46, 128)  1152        ['activation[0][0]']             
                                                                                                  
 res2a_branch2c (Conv2D)        (None, 46, 46, 128)  4224        ['activation_2[0][0]']           
                                                                                                  
 bn2a_branch1 (BatchNormalizati  (None, 46, 46, 128)  512        ['res2a_branch1[0][0]']          
 on)                                                                                              
                                                                                                  
 bn2a_branch2c (BatchNormalizat  (None, 46, 46, 128)  512        ['res2a_branch2c[0][0]']         
 ion)                                                                                             
                                                                                                  
 add (Add)                      (None, 46, 46, 128)  0           ['bn2a_branch1[0][0]',           
                                                                  'bn2a_branch2c[0][0]']          
                                                                                                  
 activation_3 (Activation)      (None, 46, 46, 128)  0           ['add[0][0]']                    
                                                                                                  
 res2b_branch2a (Conv2D)        (None, 46, 46, 32)   4128        ['activation_3[0][0]']           
                                                                                                  
 bn2b_branch2a (BatchNormalizat  (None, 46, 46, 32)  128         ['res2b_branch2a[0][0]']         
 ion)                                                                                             
                                                                                                  
 activation_4 (Activation)      (None, 46, 46, 32)   0           ['bn2b_branch2a[0][0]']          
                                                                                                  
 res2b_branch2b (Conv2D)        (None, 46, 46, 32)   9248        ['activation_4[0][0]']           
                                                                                                  
 bn2b_branch2b (BatchNormalizat  (None, 46, 46, 32)  128         ['res2b_branch2b[0][0]']         
 ion)                                                                                             
                                                                                                  
 activation_5 (Activation)      (None, 46, 46, 32)   0           ['bn2b_branch2b[0][0]']          
                                                                                                  
 res2b_branch2c (Conv2D)        (None, 46, 46, 128)  4224        ['activation_5[0][0]']           
                                                                                                  
 bn2b_branch2c (BatchNormalizat  (None, 46, 46, 128)  512        ['res2b_branch2c[0][0]']         
 ion)                                                                                             
                                                                                                  
 add_1 (Add)                    (None, 46, 46, 128)  0           ['activation_3[0][0]',           
                                                                  'bn2b_branch2c[0][0]']          
                                                                                                  
 activation_6 (Activation)      (None, 46, 46, 128)  0           ['add_1[0][0]']                  
                                                                                                  
 res2c_branch2a (Conv2D)        (None, 46, 46, 32)   4128        ['activation_6[0][0]']           
                                                                                                  
 bn2c_branch2a (BatchNormalizat  (None, 46, 46, 32)  128         ['res2c_branch2a[0][0]']         
 ion)                                                                                             
                                                                                                  
 activation_7 (Activation)      (None, 46, 46, 32)   0           ['bn2c_branch2a[0][0]']          
                                                                                                  
 res2c_branch2b (Conv2D)        (None, 46, 46, 32)   9248        ['activation_7[0][0]']           
                                                                                                  
 bn2c_branch2b (BatchNormalizat  (None, 46, 46, 32)  128         ['res2c_branch2b[0][0]']         
 ion)                                                                                             
                                                                                                  
 activation_8 (Activation)      (None, 46, 46, 32)   0           ['bn2c_branch2b[0][0]']          
                                                                                                  
 res2c_branch2c (Conv2D)        (None, 46, 46, 128)  4224        ['activation_8[0][0]']           
                                                                                                  
 bn2c_branch2c (BatchNormalizat  (None, 46, 46, 128)  512        ['res2c_branch2c[0][0]']         
 ion)                                                                                             
                                                                                                  
 add_2 (Add)                    (None, 46, 46, 128)  0           ['activation_6[0][0]',           
                                                                  'bn2c_branch2c[0][0]']          
                                                                                                  
 activation_9 (Activation)      (None, 46, 46, 128)  0           ['add_2[0][0]']                  
                                                                                                  
 res3a_branch2a (Conv2D)        (None, 23, 23, 64)   8256        ['activation_9[0][0]']           
                                                                                                  
 bn3a_branch2a (BatchNormalizat  (None, 23, 23, 64)  256         ['res3a_branch2a[0][0]']         
 ion)                                                                                             
                                                                                                  
 activation_10 (Activation)     (None, 23, 23, 64)   0           ['bn3a_branch2a[0][0]']          
                                                                                                  
 res3a_branch2b (Conv2D)        (None, 23, 23, 64)   36928       ['activation_10[0][0]']          
                                                                                                  
 bn3a_branch2b (BatchNormalizat  (None, 23, 23, 64)  256         ['res3a_branch2b[0][0]']         
 ion)                                                                                             
                                                                                                  
 activation_11 (Activation)     (None, 23, 23, 64)   0           ['bn3a_branch2b[0][0]']          
                                                                                                  
 res3a_branch1 (Conv2D)         (None, 23, 23, 256)  33024       ['activation_9[0][0]']           
                                                                                                  
 res3a_branch2c (Conv2D)        (None, 23, 23, 256)  16640       ['activation_11[0][0]']          
                                                                                                  
 bn3a_branch1 (BatchNormalizati  (None, 23, 23, 256)  1024       ['res3a_branch1[0][0]']          
 on)                                                                                              
                                                                                                  
 bn3a_branch2c (BatchNormalizat  (None, 23, 23, 256)  1024       ['res3a_branch2c[0][0]']         
 ion)                                                                                             
                                                                                                  
 add_3 (Add)                    (None, 23, 23, 256)  0           ['bn3a_branch1[0][0]',           
                                                                  'bn3a_branch2c[0][0]']          
                                                                                                  
 activation_12 (Activation)     (None, 23, 23, 256)  0           ['add_3[0][0]']                  
                                                                                                  
 res3b_branch2a (Conv2D)        (None, 23, 23, 64)   16448       ['activation_12[0][0]']          
                                                                                                  
 bn3b_branch2a (BatchNormalizat  (None, 23, 23, 64)  256         ['res3b_branch2a[0][0]']         
 ion)                                                                                             
                                                                                                  
 activation_13 (Activation)     (None, 23, 23, 64)   0           ['bn3b_branch2a[0][0]']          
                                                                                                  
 res3b_branch2b (Conv2D)        (None, 23, 23, 64)   36928       ['activation_13[0][0]']          
                                                                                                  
 bn3b_branch2b (BatchNormalizat  (None, 23, 23, 64)  256         ['res3b_branch2b[0][0]']         
 ion)                                                                                             
                                                                                                  
 activation_14 (Activation)     (None, 23, 23, 64)   0           ['bn3b_branch2b[0][0]']          
                                                                                                  
 res3b_branch2c (Conv2D)        (None, 23, 23, 256)  16640       ['activation_14[0][0]']          
                                                                                                  
 bn3b_branch2c (BatchNormalizat  (None, 23, 23, 256)  1024       ['res3b_branch2c[0][0]']         
 ion)                                                                                             
                                                                                                  
 add_4 (Add)                    (None, 23, 23, 256)  0           ['activation_12[0][0]',          
                                                                  'bn3b_branch2c[0][0]']          
                                                                                                  
 activation_15 (Activation)     (None, 23, 23, 256)  0           ['add_4[0][0]']                  
                                                                                                  
 res3c_branch2a (Conv2D)        (None, 23, 23, 64)   16448       ['activation_15[0][0]']          
                                                                                                  
 bn3c_branch2a (BatchNormalizat  (None, 23, 23, 64)  256         ['res3c_branch2a[0][0]']         
 ion)                                                                                             
                                                                                                  
 activation_16 (Activation)     (None, 23, 23, 64)   0           ['bn3c_branch2a[0][0]']          
                                                                                                  
 res3c_branch2b (Conv2D)        (None, 23, 23, 64)   36928       ['activation_16[0][0]']          
                                                                                                  
 bn3c_branch2b (BatchNormalizat  (None, 23, 23, 64)  256         ['res3c_branch2b[0][0]']         
 ion)                                                                                             
                                                                                                  
 activation_17 (Activation)     (None, 23, 23, 64)   0           ['bn3c_branch2b[0][0]']          
                                                                                                  
 res3c_branch2c (Conv2D)        (None, 23, 23, 256)  16640       ['activation_17[0][0]']          
                                                                                                  
 bn3c_branch2c (BatchNormalizat  (None, 23, 23, 256)  1024       ['res3c_branch2c[0][0]']         
 ion)                                                                                             
                                                                                                  
 add_5 (Add)                    (None, 23, 23, 256)  0           ['activation_15[0][0]',          
                                                                  'bn3c_branch2c[0][0]']          
                                                                                                  
 activation_18 (Activation)     (None, 23, 23, 256)  0           ['add_5[0][0]']                  
                                                                                                  
 res3d_branch2a (Conv2D)        (None, 23, 23, 64)   16448       ['activation_18[0][0]']          
                                                                                                  
 bn3d_branch2a (BatchNormalizat  (None, 23, 23, 64)  256         ['res3d_branch2a[0][0]']         
 ion)                                                                                             
                                                                                                  
 activation_19 (Activation)     (None, 23, 23, 64)   0           ['bn3d_branch2a[0][0]']          
                                                                                                  
 res3d_branch2b (Conv2D)        (None, 23, 23, 64)   36928       ['activation_19[0][0]']          
                                                                                                  
 bn3d_branch2b (BatchNormalizat  (None, 23, 23, 64)  256         ['res3d_branch2b[0][0]']         
 ion)                                                                                             
                                                                                                  
 activation_20 (Activation)     (None, 23, 23, 64)   0           ['bn3d_branch2b[0][0]']          
                                                                                                  
 res3d_branch2c (Conv2D)        (None, 23, 23, 256)  16640       ['activation_20[0][0]']          
                                                                                                  
 bn3d_branch2c (BatchNormalizat  (None, 23, 23, 256)  1024       ['res3d_branch2c[0][0]']         
 ion)                                                                                             
                                                                                                  
 add_6 (Add)                    (None, 23, 23, 256)  0           ['activation_18[0][0]',          
                                                                  'bn3d_branch2c[0][0]']          
                                                                                                  
 activation_21 (Activation)     (None, 23, 23, 256)  0           ['add_6[0][0]']                  
                                                                                                  
 res4a_branch2a (Conv2D)        (None, 12, 12, 128)  32896       ['activation_21[0][0]']          
                                                                                                  
 bn4a_branch2a (BatchNormalizat  (None, 12, 12, 128)  512        ['res4a_branch2a[0][0]']         
 ion)                                                                                             
                                                                                                  
 activation_22 (Activation)     (None, 12, 12, 128)  0           ['bn4a_branch2a[0][0]']          
                                                                                                  
 res4a_branch2b (Conv2D)        (None, 12, 12, 128)  147584      ['activation_22[0][0]']          
                                                                                                  
 bn4a_branch2b (BatchNormalizat  (None, 12, 12, 128)  512        ['res4a_branch2b[0][0]']         
 ion)                                                                                             
                                                                                                  
 activation_23 (Activation)     (None, 12, 12, 128)  0           ['bn4a_branch2b[0][0]']          
                                                                                                  
 res4a_branch1 (Conv2D)         (None, 12, 12, 512)  131584      ['activation_21[0][0]']          
                                                                                                  
 res4a_branch2c (Conv2D)        (None, 12, 12, 512)  66048       ['activation_23[0][0]']          
                                                                                                  
 bn4a_branch1 (BatchNormalizati  (None, 12, 12, 512)  2048       ['res4a_branch1[0][0]']          
 on)                                                                                              
                                                                                                  
 bn4a_branch2c (BatchNormalizat  (None, 12, 12, 512)  2048       ['res4a_branch2c[0][0]']         
 ion)                                                                                             
                                                                                                  
 add_7 (Add)                    (None, 12, 12, 512)  0           ['bn4a_branch1[0][0]',           
                                                                  'bn4a_branch2c[0][0]']          
                                                                                                  
 activation_24 (Activation)     (None, 12, 12, 512)  0           ['add_7[0][0]']                  
                                                                                                  
 res4b_branch2a (Conv2D)        (None, 12, 12, 128)  65664       ['activation_24[0][0]']          
                                                                                                  
 bn4b_branch2a (BatchNormalizat  (None, 12, 12, 128)  512        ['res4b_branch2a[0][0]']         
 ion)                                                                                             
                                                                                                  
 activation_25 (Activation)     (None, 12, 12, 128)  0           ['bn4b_branch2a[0][0]']          
                                                                                                  
 res4b_branch2b (Conv2D)        (None, 12, 12, 128)  147584      ['activation_25[0][0]']          
                                                                                                  
 bn4b_branch2b (BatchNormalizat  (None, 12, 12, 128)  512        ['res4b_branch2b[0][0]']         
 ion)                                                                                             
                                                                                                  
 activation_26 (Activation)     (None, 12, 12, 128)  0           ['bn4b_branch2b[0][0]']          
                                                                                                  
 res4b_branch2c (Conv2D)        (None, 12, 12, 512)  66048       ['activation_26[0][0]']          
                                                                                                  
 bn4b_branch2c (BatchNormalizat  (None, 12, 12, 512)  2048       ['res4b_branch2c[0][0]']         
 ion)                                                                                             
                                                                                                  
 add_8 (Add)                    (None, 12, 12, 512)  0           ['activation_24[0][0]',          
                                                                  'bn4b_branch2c[0][0]']          
                                                                                                  
 activation_27 (Activation)     (None, 12, 12, 512)  0           ['add_8[0][0]']                  
                                                                                                  
 res4c_branch2a (Conv2D)        (None, 12, 12, 128)  65664       ['activation_27[0][0]']          
                                                                                                  
 bn4c_branch2a (BatchNormalizat  (None, 12, 12, 128)  512        ['res4c_branch2a[0][0]']         
 ion)                                                                                             
                                                                                                  
 activation_28 (Activation)     (None, 12, 12, 128)  0           ['bn4c_branch2a[0][0]']          
                                                                                                  
 res4c_branch2b (Conv2D)        (None, 12, 12, 128)  147584      ['activation_28[0][0]']          
                                                                                                  
 bn4c_branch2b (BatchNormalizat  (None, 12, 12, 128)  512        ['res4c_branch2b[0][0]']         
 ion)                                                                                             
                                                                                                  
 activation_29 (Activation)     (None, 12, 12, 128)  0           ['bn4c_branch2b[0][0]']          
                                                                                                  
 res4c_branch2c (Conv2D)        (None, 12, 12, 512)  66048       ['activation_29[0][0]']          
                                                                                                  
 bn4c_branch2c (BatchNormalizat  (None, 12, 12, 512)  2048       ['res4c_branch2c[0][0]']         
 ion)                                                                                             
                                                                                                  
 add_9 (Add)                    (None, 12, 12, 512)  0           ['activation_27[0][0]',          
                                                                  'bn4c_branch2c[0][0]']          
                                                                                                  
 activation_30 (Activation)     (None, 12, 12, 512)  0           ['add_9[0][0]']                  
                                                                                                  
 res4d_branch2a (Conv2D)        (None, 12, 12, 128)  65664       ['activation_30[0][0]']          
                                                                                                  
 bn4d_branch2a (BatchNormalizat  (None, 12, 12, 128)  512        ['res4d_branch2a[0][0]']         
 ion)                                                                                             
                                                                                                  
 activation_31 (Activation)     (None, 12, 12, 128)  0           ['bn4d_branch2a[0][0]']          
                                                                                                  
 res4d_branch2b (Conv2D)        (None, 12, 12, 128)  147584      ['activation_31[0][0]']          
                                                                                                  
 bn4d_branch2b (BatchNormalizat  (None, 12, 12, 128)  512        ['res4d_branch2b[0][0]']         
 ion)                                                                                             
                                                                                                  
 activation_32 (Activation)     (None, 12, 12, 128)  0           ['bn4d_branch2b[0][0]']          
                                                                                                  
 res4d_branch2c (Conv2D)        (None, 12, 12, 512)  66048       ['activation_32[0][0]']          
                                                                                                  
 bn4d_branch2c (BatchNormalizat  (None, 12, 12, 512)  2048       ['res4d_branch2c[0][0]']         
 ion)                                                                                             
                                                                                                  
 add_10 (Add)                   (None, 12, 12, 512)  0           ['activation_30[0][0]',          
                                                                  'bn4d_branch2c[0][0]']          
                                                                                                  
 activation_33 (Activation)     (None, 12, 12, 512)  0           ['add_10[0][0]']                 
                                                                                                  
 res4e_branch2a (Conv2D)        (None, 12, 12, 128)  65664       ['activation_33[0][0]']          
                                                                                                  
 bn4e_branch2a (BatchNormalizat  (None, 12, 12, 128)  512        ['res4e_branch2a[0][0]']         
 ion)                                                                                             
                                                                                                  
 activation_34 (Activation)     (None, 12, 12, 128)  0           ['bn4e_branch2a[0][0]']          
                                                                                                  
 res4e_branch2b (Conv2D)        (None, 12, 12, 128)  147584      ['activation_34[0][0]']          
                                                                                                  
 bn4e_branch2b (BatchNormalizat  (None, 12, 12, 128)  512        ['res4e_branch2b[0][0]']         
 ion)                                                                                             
                                                                                                  
 activation_35 (Activation)     (None, 12, 12, 128)  0           ['bn4e_branch2b[0][0]']          
                                                                                                  
 res4e_branch2c (Conv2D)        (None, 12, 12, 512)  66048       ['activation_35[0][0]']          
                                                                                                  
 bn4e_branch2c (BatchNormalizat  (None, 12, 12, 512)  2048       ['res4e_branch2c[0][0]']         
 ion)                                                                                             
                                                                                                  
 add_11 (Add)                   (None, 12, 12, 512)  0           ['activation_33[0][0]',          
                                                                  'bn4e_branch2c[0][0]']          
                                                                                                  
 activation_36 (Activation)     (None, 12, 12, 512)  0           ['add_11[0][0]']                 
                                                                                                  
 res4f_branch2a (Conv2D)        (None, 12, 12, 128)  65664       ['activation_36[0][0]']          
                                                                                                  
 bn4f_branch2a (BatchNormalizat  (None, 12, 12, 128)  512        ['res4f_branch2a[0][0]']         
 ion)                                                                                             
                                                                                                  
 activation_37 (Activation)     (None, 12, 12, 128)  0           ['bn4f_branch2a[0][0]']          
                                                                                                  
 res4f_branch2b (Conv2D)        (None, 12, 12, 128)  147584      ['activation_37[0][0]']          
                                                                                                  
 bn4f_branch2b (BatchNormalizat  (None, 12, 12, 128)  512        ['res4f_branch2b[0][0]']         
 ion)                                                                                             
                                                                                                  
 activation_38 (Activation)     (None, 12, 12, 128)  0           ['bn4f_branch2b[0][0]']          
                                                                                                  
 res4f_branch2c (Conv2D)        (None, 12, 12, 512)  66048       ['activation_38[0][0]']          
                                                                                                  
 bn4f_branch2c (BatchNormalizat  (None, 12, 12, 512)  2048       ['res4f_branch2c[0][0]']         
 ion)                                                                                             
                                                                                                  
 add_12 (Add)                   (None, 12, 12, 512)  0           ['activation_36[0][0]',          
                                                                  'bn4f_branch2c[0][0]']          
                                                                                                  
 activation_39 (Activation)     (None, 12, 12, 512)  0           ['add_12[0][0]']                 
                                                                                                  
 res5a_branch2a (Conv2D)        (None, 6, 6, 256)    131328      ['activation_39[0][0]']          
                                                                                                  
 bn5a_branch2a (BatchNormalizat  (None, 6, 6, 256)   1024        ['res5a_branch2a[0][0]']         
 ion)                                                                                             
                                                                                                  
 activation_40 (Activation)     (None, 6, 6, 256)    0           ['bn5a_branch2a[0][0]']          
                                                                                                  
 res5a_branch2b (Conv2D)        (None, 6, 6, 256)    590080      ['activation_40[0][0]']          
                                                                                                  
 bn5a_branch2b (BatchNormalizat  (None, 6, 6, 256)   1024        ['res5a_branch2b[0][0]']         
 ion)                                                                                             
                                                                                                  
 activation_41 (Activation)     (None, 6, 6, 256)    0           ['bn5a_branch2b[0][0]']          
                                                                                                  
 res5a_branch1 (Conv2D)         (None, 6, 6, 1024)   525312      ['activation_39[0][0]']          
                                                                                                  
 res5a_branch2c (Conv2D)        (None, 6, 6, 1024)   263168      ['activation_41[0][0]']          
                                                                                                  
 bn5a_branch1 (BatchNormalizati  (None, 6, 6, 1024)  4096        ['res5a_branch1[0][0]']          
 on)                                                                                              
                                                                                                  
 bn5a_branch2c (BatchNormalizat  (None, 6, 6, 1024)  4096        ['res5a_branch2c[0][0]']         
 ion)                                                                                             
                                                                                                  
 add_13 (Add)                   (None, 6, 6, 1024)   0           ['bn5a_branch1[0][0]',           
                                                                  'bn5a_branch2c[0][0]']          
                                                                                                  
 activation_42 (Activation)     (None, 6, 6, 1024)   0           ['add_13[0][0]']                 
                                                                                                  
 res5b_branch2a (Conv2D)        (None, 6, 6, 256)    262400      ['activation_42[0][0]']          
                                                                                                  
 bn5b_branch2a (BatchNormalizat  (None, 6, 6, 256)   1024        ['res5b_branch2a[0][0]']         
 ion)                                                                                             
                                                                                                  
 activation_43 (Activation)     (None, 6, 6, 256)    0           ['bn5b_branch2a[0][0]']          
                                                                                                  
 res5b_branch2b (Conv2D)        (None, 6, 6, 256)    590080      ['activation_43[0][0]']          
                                                                                                  
 bn5b_branch2b (BatchNormalizat  (None, 6, 6, 256)   1024        ['res5b_branch2b[0][0]']         
 ion)                                                                                             
                                                                                                  
 activation_44 (Activation)     (None, 6, 6, 256)    0           ['bn5b_branch2b[0][0]']          
                                                                                                  
 res5b_branch2c (Conv2D)        (None, 6, 6, 1024)   263168      ['activation_44[0][0]']          
                                                                                                  
 bn5b_branch2c (BatchNormalizat  (None, 6, 6, 1024)  4096        ['res5b_branch2c[0][0]']         
 ion)                                                                                             
                                                                                                  
 add_14 (Add)                   (None, 6, 6, 1024)   0           ['activation_42[0][0]',          
                                                                  'bn5b_branch2c[0][0]']          
                                                                                                  
 activation_45 (Activation)     (None, 6, 6, 1024)   0           ['add_14[0][0]']                 
                                                                                                  
 res5c_branch2a (Conv2D)        (None, 6, 6, 256)    262400      ['activation_45[0][0]']          
                                                                                                  
 bn5c_branch2a (BatchNormalizat  (None, 6, 6, 256)   1024        ['res5c_branch2a[0][0]']         
 ion)                                                                                             
                                                                                                  
 activation_46 (Activation)     (None, 6, 6, 256)    0           ['bn5c_branch2a[0][0]']          
                                                                                                  
 res5c_branch2b (Conv2D)        (None, 6, 6, 256)    590080      ['activation_46[0][0]']          
                                                                                                  
 bn5c_branch2b (BatchNormalizat  (None, 6, 6, 256)   1024        ['res5c_branch2b[0][0]']         
 ion)                                                                                             
                                                                                                  
 activation_47 (Activation)     (None, 6, 6, 256)    0           ['bn5c_branch2b[0][0]']          
                                                                                                  
 res5c_branch2c (Conv2D)        (None, 6, 6, 1024)   263168      ['activation_47[0][0]']          
                                                                                                  
 bn5c_branch2c (BatchNormalizat  (None, 6, 6, 1024)  4096        ['res5c_branch2c[0][0]']         
 ion)                                                                                             
                                                                                                  
 add_15 (Add)                   (None, 6, 6, 1024)   0           ['activation_45[0][0]',          
                                                                  'bn5c_branch2c[0][0]']          
                                                                                                  
 activation_48 (Activation)     (None, 6, 6, 1024)   0           ['add_15[0][0]']                 
                                                                                                  
 avg_pool (AveragePooling2D)    (None, 3, 3, 1024)   0           ['activation_48[0][0]']          
                                                                                                  
 flatten (Flatten)              (None, 9216)         0           ['avg_pool[0][0]']               
                                                                                                  
 fc1024 (Dense)                 (None, 512)          4719104     ['flatten[0][0]']                
                                                                                                  
 fc9 (Dense)                    (None, 9)            4617        ['fc1024[0][0]']                 
                                                                                                  
==================================================================================================
Total params: 10,647,753
Trainable params: 10,621,241
Non-trainable params: 26,512
__________________________________________________________________________________________________
…
