…
[[1628  281    0    0    0   20    0   81]
 [   6 4135  159   16    6    9    3   44]
 [   0  268 2585   15   13   15    0   75]
 [  89  109    9 2507   61   63   35  239]
 [  41  122   54  175 3538  128   56  290]
 [  17   44   50  120  110 3487   66  187]
 [   1   43   45   83   37  135 2682  178]
 [  45  290  186   48   49  174   13 3197]]

Test accuracy on folder 5
84.36545729637146

Model: "sequential"
_________________________________________________________________
 Layer (type)                Output Shape              Param #   
=================================================================
 conv2d (Conv2D)             (None, 48, 48, 16)        208       
                                                                 
 activation (Activation)     (None, 48, 48, 16)        0         
                                                                 
 max_pooling2d (MaxPooling2D  (None, 24, 24, 16)       0         
 )                                                               
                                                                 
 dropout (Dropout)           (None, 24, 24, 16)        0         
                                                                 
 conv2d_1 (Conv2D)           (None, 24, 24, 32)        2080      
                                                                 
 activation_1 (Activation)   (None, 24, 24, 32)        0         
                                                                 
 max_pooling2d_1 (MaxPooling  (None, 12, 12, 32)       0         
 2D)                                                             
                                                                 
 dropout_1 (Dropout)         (None, 12, 12, 32)        0         
                                                                 
 time_distributed (TimeDistr  (None, 12, 384)          0         
 ibuted)                                                         
                                                                 
 lstm (LSTM)                 (None, 100)               194000    
                                                                 
 dense (Dense)               (None, 9)                 909       
                                                                 
=================================================================
Total params: 197,197
Trainable params: 197,197
Non-trainable params: 0
_________________________________________________________________

SUMMARY

Mean accuracy
72.14938402175903

F1-Score
71.91644991416972

Precision
73.16854286219177

Recall
72.14938484849792
…
[[1730   53    0    0    0   61   26  140]
 [   1 4324    0    3    0    5   18   27]
 [   0  434 2354    8    0   38   23  114]
 [   0    4    0 2908    0   90   74   36]
 [   9  103    1   39 3437  432  156  227]
 [   0    4    3   11   15 3940   64   44]
 [   0    0    0    9    1   36 3146   12]
 [  21   66   50   10    7  347   55 3446]]

Test accuracy on folder 5
89.78410363197327

Model: "sequential_2"
_________________________________________________________________
 Layer (type)                Output Shape              Param #   
=================================================================
 conv2d_8 (Conv2D)           (None, 48, 48, 64)        1792      
                                                                 
 batch_normalization_9 (Batc  (None, 48, 48, 64)       256       
 hNormalization)                                                 
                                                                 
 conv2d_9 (Conv2D)           (None, 48, 48, 64)        36928     
                                                                 
 batch_normalization_10 (Bat  (None, 48, 48, 64)       256       
 chNormalization)                                                
                                                                 
 max_pooling2d_5 (MaxPooling  (None, 24, 24, 64)       0         
 2D)                                                             
                                                                 
 dropout_7 (Dropout)         (None, 24, 24, 64)        0         
                                                                 
 conv2d_10 (Conv2D)          (None, 24, 24, 128)       73856     
                                                                 
 batch_normalization_11 (Bat  (None, 24, 24, 128)      512       
 chNormalization)                                                
                                                                 
 conv2d_11 (Conv2D)          (None, 24, 24, 128)       147584    
                                                                 
 batch_normalization_12 (Bat  (None, 24, 24, 128)      512       
 chNormalization)                                                
                                                                 
 max_pooling2d_6 (MaxPooling  (None, 12, 12, 128)      0         
 2D)                                                             
                                                                 
 dropout_8 (Dropout)         (None, 12, 12, 128)       0         
                                                                 
 conv2d_12 (Conv2D)          (None, 12, 12, 256)       295168    
                                                                 
 batch_normalization_13 (Bat  (None, 12, 12, 256)      1024      
 chNormalization)                                                
                                                                 
 conv2d_13 (Conv2D)          (None, 12, 12, 256)       590080    
                                                                 
 batch_normalization_14 (Bat  (None, 12, 12, 256)      1024      
 chNormalization)                                                
                                                                 
 max_pooling2d_7 (MaxPooling  (None, 6, 6, 256)        0         
 2D)                                                             
                                                                 
 dropout_9 (Dropout)         (None, 6, 6, 256)         0         
                                                                 
 flatten_2 (Flatten)         (None, 9216)              0         
                                                                 
 dense_5 (Dense)             (None, 1024)              9438208   
                                                                 
 batch_normalization_15 (Bat  (None, 1024)             4096      
 chNormalization)                                                
                                                                 
 dropout_10 (Dropout)        (None, 1024)              0         
                                                                 
 dense_6 (Dense)             (None, 512)               524800    
                                                                 
 batch_normalization_16 (Bat  (None, 512)              2048      
 chNormalization)                                                
                                                                 
 dropout_11 (Dropout)        (None, 512)               0         
                                                                 
 dense_7 (Dense)             (None, 256)               131328    
                                                                 
 batch_normalization_17 (Bat  (None, 256)              1024      
 chNormalization)                                                
                                                                 
 dense_8 (Dense)             (None, 9)                 2313      
                                                                 
=================================================================
Total params: 11,252,809
Trainable params: 11,247,433
Non-trainable params: 5,376
_________________________________________________________________

SUMMARY

Mean accuracy
87.42861747741699

F1-Score
87.34705077876454

Precision
88.67093307294753

Recall
87.42861326445357
…
