…
[[1628  281    0    0    0   20    0   81]
 [   6 4135  159   16    6    9    3   44]
 [   0  268 2585   15   13   15    0   75]
 [  89  109    9 2507   61   63   35  239]
 [  41  122   54  175 3538  128   56  290]
 [  17   44   50  120  110 3487   66  187]
 [   1   43   45   83   37  135 2682  178]
 [  45  290  186   48   49  174   13 3197]]

Test accuracy on folder 5
84.36545729637146

Model: "sequential"
_________________________________________________________________
 Layer (type)                Output Shape              Param #   
=================================================================
 conv2d (Conv2D)             (None, 48, 48, 16)        208       
                                                                 
 activation (Activation)     (None, 48, 48, 16)        0         
                                                                 
 max_pooling2d (MaxPooling2D  (None, 24, 24, 16)       0         
 )                                                               
                                                                 
 dropout (Dropout)           (None, 24, 24, 16)        0         
                                                                 
 conv2d_1 (Conv2D)           (None, 24, 24, 32)        2080      
                                                                 
 activation_1 (Activation)   (None, 24, 24, 32)        0         
                                                                 
 max_pooling2d_1 (MaxPooling  (None, 12, 12, 32)       0         
 2D)                                                             
                                                                 
 dropout_1 (Dropout)         (None, 12, 12, 32)        0         
                                                                 
 time_distributed (TimeDistr  (None, 12, 384)          0         
 ibuted)                                                         
                                                                 
 lstm (LSTM)                 (None, 100)               194000    
                                                                 
 dense (Dense)               (None, 9)                 909       
                                                                 
=================================================================
Total params: 197,197
Trainable params: 197,197
Non-trainable params: 0
_________________________________________________________________

SUMMARY

Mean accuracy
72.14938402175903

F1-Score
71.91644991416972

Precision
73.16854286219177

Recall
72.14938484849792
…
