…
[[2009    1    0    0    0    0    0    0]
 [   0 4378    0    0    0    0    0    0]
 [   0    9 2961    0    0    0    0    1]
 [   0    0    0 3112    0    0    0    0]
 [   0    0    0    0 4403    0    0    1]
 [   0    0    0    0    2 4077    0    2]
 [   0    0    0    0    0    0 3204    0]
 [   0    3    1    0   18    0    0 3980]]

Test accuracy on folder 5
99.86506700515747

Model: "sequential_1"
_________________________________________________________________
 Layer (type)                Output Shape              Param #   
=================================================================
 vgg19 (Functional)          (None, 2, 2, 512)         20024384  
                                                                 
 dropout_3 (Dropout)         (None, 2, 2, 512)         0         
                                                                 
 flatten_1 (Flatten)         (None, 2048)              0         
                                                                 
 batch_normalization_4 (Batc  (None, 2048)             8192      
 hNormalization)                                                 
                                                                 
 dense_4 (Dense)             (None, 32)                65568     
                                                                 
 batch_normalization_5 (Batc  (None, 32)               128       
 hNormalization)                                                 
                                                                 
 activation_3 (Activation)   (None, 32)                0         
                                                                 
 dropout_4 (Dropout)         (None, 32)                0         
                                                                 
 dense_5 (Dense)             (None, 32)                1056      
                                                                 
 batch_normalization_6 (Batc  (None, 32)               128       
 hNormalization)                                                 
                                                                 
 activation_4 (Activation)   (None, 32)                0         
                                                                 
 dropout_5 (Dropout)         (None, 32)                0         
                                                                 
 dense_6 (Dense)             (None, 32)                1056      
                                                                 
 batch_normalization_7 (Batc  (None, 32)               128       
 hNormalization)                                                 
                                                                 
 activation_5 (Activation)   (None, 32)                0         
                                                                 
 dense_7 (Dense)             (None, 9)                 297       
                                                                 
=================================================================
Total params: 20,100,937
Trainable params: 20,096,649
Non-trainable params: 4,288
_________________________________________________________________

SUMMARY

Mean accuracy
93.64621043205261

F1-Score
93.65420324355527

Precision
94.11059020946328

Recall
93.646212555934
…
