…
weighted avg       0.99      0.99      0.99      7177

Confusion Matrix
[[ 984    0    3    0    3    0    0]
 [   0  109    0    0    0    0    0]
 [   7    0 1009    0    2    4    2]
 [   0    0    1 1794    0    2    1]
 [   3    0    7    0 1205    0    1]
 [   0    0    5    2    0  794    0]
 [   0    0    0    0    1    0 1238]]

Test accuracy on folder 5
99.38693046569824

Model: "sequential"
_________________________________________________________________
 Layer (type)                Output Shape              Param #   
=================================================================
 conv2d (Conv2D)             (None, 48, 48, 64)        1664      
                                                                 
 activation (Activation)     (None, 48, 48, 64)        0         
                                                                 
 conv2d_1 (Conv2D)           (None, 44, 44, 64)        102464    
                                                                 
 activation_1 (Activation)   (None, 44, 44, 64)        0         
                                                                 
 max_pooling2d (MaxPooling2D  (None, 14, 14, 64)       0         
 )                                                               
                                                                 
 conv2d_2 (Conv2D)           (None, 14, 14, 64)        36928     
                                                                 
 activation_2 (Activation)   (None, 14, 14, 64)        0         
                                                                 
 conv2d_3 (Conv2D)           (None, 12, 12, 64)        36928     
                                                                 
 activation_3 (Activation)   (None, 12, 12, 64)        0         
                                                                 
 max_pooling2d_1 (MaxPooling  (None, 6, 6, 64)         0         
 2D)                                                             
                                                                 
 flatten (Flatten)           (None, 2304)              0         
                                                                 
 dense (Dense)               (None, 512)               1180160   
                                                                 
 activation_4 (Activation)   (None, 512)               0         
                                                                 
 dropout (Dropout)           (None, 512)               0         
                                                                 
 dense_1 (Dense)             (None, 7)                 3591      
                                                                 
 activation_5 (Activation)   (None, 7)                 0         
                                                                 
=================================================================
Total params: 1,361,735
Trainable params: 1,361,735
Non-trainable params: 0
_________________________________________________________________

SUMMARY

Mean accuracy
84.68084335327148

F1-Score
84.7997163498362

Precision
85.09460530102749

Recall
84.68084423272029
…
