…
weighted avg       0.98      0.98      0.98      7177

Confusion Matrix
[[ 957    2   17    2    6    0    6]
 [   0  109    0    0    0    0    0]
 [  12    0  986    0    9    7   10]
 [   3    0    2 1786    0    4    3]
 [   6    0   11    1 1180    2   16]
 [   1    0   12    3    0  785    0]
 [   0    0    2    1    4    0 1232]]

Test accuracy on folder 5
98.02145957946777

Model: "sequential"
_________________________________________________________________
 Layer (type)                Output Shape              Param #   
=================================================================
 conv2d (Conv2D)             (None, 48, 48, 64)        640       
                                                                 
 batch_normalization (BatchN  (None, 48, 48, 64)       256       
 ormalization)                                                   
                                                                 
 conv2d_1 (Conv2D)           (None, 48, 48, 64)        36928     
                                                                 
 batch_normalization_1 (Batc  (None, 48, 48, 64)       256       
 hNormalization)                                                 
                                                                 
 max_pooling2d (MaxPooling2D  (None, 24, 24, 64)       0         
 )                                                               
                                                                 
 dropout (Dropout)           (None, 24, 24, 64)        0         
                                                                 
 conv2d_2 (Conv2D)           (None, 24, 24, 128)       73856     
                                                                 
 batch_normalization_2 (Batc  (None, 24, 24, 128)      512       
 hNormalization)                                                 
                                                                 
 conv2d_3 (Conv2D)           (None, 24, 24, 128)       147584    
                                                                 
 batch_normalization_3 (Batc  (None, 24, 24, 128)      512       
 hNormalization)                                                 
                                                                 
 max_pooling2d_1 (MaxPooling  (None, 12, 12, 128)      0         
 2D)                                                             
                                                                 
 dropout_1 (Dropout)         (None, 12, 12, 128)       0         
                                                                 
 conv2d_4 (Conv2D)           (None, 12, 12, 256)       295168    
                                                                 
 batch_normalization_4 (Batc  (None, 12, 12, 256)      1024      
 hNormalization)                                                 
                                                                 
 conv2d_5 (Conv2D)           (None, 12, 12, 256)       590080    
                                                                 
 batch_normalization_5 (Batc  (None, 12, 12, 256)      1024      
 hNormalization)                                                 
                                                                 
 max_pooling2d_2 (MaxPooling  (None, 6, 6, 256)        0         
 2D)                                                             
                                                                 
 dropout_2 (Dropout)         (None, 6, 6, 256)         0         
                                                                 
 flatten (Flatten)           (None, 9216)              0         
                                                                 
 dense (Dense)               (None, 1024)              9438208   
                                                                 
 batch_normalization_6 (Batc  (None, 1024)             4096      
 hNormalization)                                                 
                                                                 
 dropout_3 (Dropout)         (None, 1024)              0         
                                                                 
 dense_1 (Dense)             (None, 512)               524800    
                                                                 
 batch_normalization_7 (Batc  (None, 512)              2048      
 hNormalization)                                                 
                                                                 
 dropout_4 (Dropout)         (None, 512)               0         
                                                                 
 dense_2 (Dense)             (None, 256)               131328    
                                                                 
 batch_normalization_8 (Batc  (None, 256)              1024      
 hNormalization)                                                 
                                                                 
 dense_3 (Dense)             (None, 7)                 1799      
                                                                 
=================================================================
Total params: 11,251,143
Trainable params: 11,245,767
Non-trainable params: 5,376
_________________________________________________________________

SUMMARY

Mean accuracy
84.32368278503418

F1-Score
84.20811208227308

Precision
84.57491051754928
…
