…
weighted avg       0.79      0.79      0.79      7177

Confusion Matrix
[[ 744    4   59   48   59   13   63]
 [  11   80    6    3    2    0    7]
 [  61    2  757   37   82   42   43]
 [  30    2   37 1596   53   20   60]
 [  79    1   93   72  850   13  108]
 [   8    2   45   18   16  691   21]
 [  67    0   74   53   95   13  937]]

Test accuracy on folder 5
78.79336476325989

Model: "sequential"
_________________________________________________________________
 Layer (type)                Output Shape              Param #   
=================================================================
 conv2d (Conv2D)             (None, 48, 48, 16)        80        
                                                                 
 activation (Activation)     (None, 48, 48, 16)        0         
                                                                 
 max_pooling2d (MaxPooling2D  (None, 24, 24, 16)       0         
 )                                                               
                                                                 
 dropout (Dropout)           (None, 24, 24, 16)        0         
                                                                 
 conv2d_1 (Conv2D)           (None, 24, 24, 32)        2080      
                                                                 
 activation_1 (Activation)   (None, 24, 24, 32)        0         
                                                                 
 max_pooling2d_1 (MaxPooling  (None, 12, 12, 32)       0         
 2D)                                                             
                                                                 
 dropout_1 (Dropout)         (None, 12, 12, 32)        0         
                                                                 
 time_distributed (TimeDistr  (None, 12, 384)          0         
 ibuted)                                                         
                                                                 
 lstm (LSTM)                 (None, 100)               194000    
                                                                 
 dense (Dense)               (None, 7)                 707       
                                                                 
=================================================================
Total params: 196,867
Trainable params: 196,867
Non-trainable params: 0
_________________________________________________________________

SUMMARY

Mean accuracy
68.9642584323883

F1-Score
68.82744138716994

Precision
68.92946457567797

Recall
…
