…
weighted avg       0.95      0.95      0.95      7177

Confusion Matrix
[[ 920    0   18    2   38    0   12]
 [  20   83    0    0    0    0    6]
 [  37    0  913   20   35    6   13]
 [   0    0    2 1781    4    2    9]
 [  14    0    6    3 1170    0   23]
 [   0    0   15   17    1  757   11]
 [   1    0    3   15   18    0 1202]]

Test accuracy on folder 5
95.10937929153442

Model: "sequential"
_________________________________________________________________
 Layer (type)                Output Shape              Param #   
=================================================================
 lambda (Lambda)             (None, 48, 48, 3)         0         
                                                                 
 vgg16 (Functional)          (None, 1, 1, 512)         14714688  
                                                                 
 dropout (Dropout)           (None, 1, 1, 512)         0         
                                                                 
 flatten (Flatten)           (None, 512)               0         
                                                                 
 batch_normalization (BatchN  (None, 512)              2048      
 ormalization)                                                   
                                                                 
 dense (Dense)               (None, 32)                16416     
                                                                 
 batch_normalization_1 (Batc  (None, 32)               128       
 hNormalization)                                                 
                                                                 
 activation (Activation)     (None, 32)                0         
                                                                 
 dropout_1 (Dropout)         (None, 32)                0         
                                                                 
 dense_1 (Dense)             (None, 32)                1056      
                                                                 
 batch_normalization_2 (Batc  (None, 32)               128       
 hNormalization)                                                 
                                                                 
 activation_1 (Activation)   (None, 32)                0         
                                                                 
 dropout_2 (Dropout)         (None, 32)                0         
                                                                 
 dense_2 (Dense)             (None, 32)                1056      
                                                                 
 batch_normalization_3 (Batc  (None, 32)               128       
 hNormalization)                                                 
                                                                 
 activation_2 (Activation)   (None, 32)                0         
                                                                 
 dense_3 (Dense)             (None, 7)                 231       
                                                                 
=================================================================
Total params: 14,735,879
Trainable params: 7,099,399
Non-trainable params: 7,636,480
_________________________________________________________________

SUMMARY

Mean accuracy
81.84673190116882

F1-Score
81.7688518387649

Precision
82.36254863305724
…
