…
 [   6    0   16   11   17    5 1184]]

Test accuracy on folder 5
94.42663788795471

Model: "Net50"
__________________________________________________________________________________________________
 Layer (type)                   Output Shape         Param #     Connected to                     
==================================================================================================
 input_2 (InputLayer)           [(None, 48, 48, 1)]  0           []                               
                                                                                                  
 conv1 (Conv2D)                 (None, 46, 46, 8)    80          ['input_2[0][0]']                
                                                                                                  
 bn_conv1 (BatchNormalization)  (None, 46, 46, 8)    32          ['conv1[0][0]']                  
                                                                                                  
 activation_49 (Activation)     (None, 46, 46, 8)    0           ['bn_conv1[0][0]']               
                                                                                                  
 res2a_branch2a (Conv2D)        (None, 46, 46, 32)   288         ['activation_49[0][0]']          
                                                                                                  
 bn2a_branch2a (BatchNormalizat  (None, 46, 46, 32)  128         ['res2a_branch2a[0][0]']         
 ion)                                                                                             
                                                                                                  
 activation_50 (Activation)     (None, 46, 46, 32)   0           ['bn2a_branch2a[0][0]']          
                                                                                                  
 res2a_branch2b (Conv2D)        (None, 46, 46, 32)   9248        ['activation_50[0][0]']          
                                                                                                  
 bn2a_branch2b (BatchNormalizat  (None, 46, 46, 32)  128         ['res2a_branch2b[0][0]']         
 ion)                                                                                             
                                                                                                  
 activation_51 (Activation)     (None, 46, 46, 32)   0           ['bn2a_branch2b[0][0]']          
                                                                                                  
 res2a_branch1 (Conv2D)         (None, 46, 46, 128)  1152        ['activation_49[0][0]']          
                                                                                                  
 res2a_branch2c (Conv2D)        (None, 46, 46, 128)  4224        ['activation_51[0][0]']          
                                                                                                  
 bn2a_branch1 (BatchNormalizati  (None, 46, 46, 128)  512        ['res2a_branch1[0][0]']          
 on)                                                                                              
                                                                                                  
 bn2a_branch2c (BatchNormalizat  (None, 46, 46, 128)  512        ['res2a_branch2c[0][0]']         
 ion)                                                                                             
                                                                                                  
 add_16 (Add)                   (None, 46, 46, 128)  0           ['bn2a_branch1[0][0]',           
                                                                  'bn2a_branch2c[0][0]']          
                                                                                                  
 activation_52 (Activation)     (None, 46, 46, 128)  0           ['add_16[0][0]']                 
                                                                                                  
 res2b_branch2a (Conv2D)        (None, 46, 46, 32)   4128        ['activation_52[0][0]']          
                                                                                                  
 bn2b_branch2a (BatchNormalizat  (None, 46, 46, 32)  128         ['res2b_branch2a[0][0]']         
 ion)                                                                                             
                                                                                                  
 activation_53 (Activation)     (None, 46, 46, 32)   0           ['bn2b_branch2a[0][0]']          
                                                                                                  
 res2b_branch2b (Conv2D)        (None, 46, 46, 32)   9248        ['activation_53[0][0]']          
                                                                                                  
 bn2b_branch2b (BatchNormalizat  (None, 46, 46, 32)  128         ['res2b_branch2b[0][0]']         
 ion)                                                                                             
                                                                                                  
 activation_54 (Activation)     (None, 46, 46, 32)   0           ['bn2b_branch2b[0][0]']          
                                                                                                  
 res2b_branch2c (Conv2D)        (None, 46, 46, 128)  4224        ['activation_54[0][0]']          
                                                                                                  
 bn2b_branch2c (BatchNormalizat  (None, 46, 46, 128)  512        ['res2b_branch2c[0][0]']         
 ion)                                                                                             
                                                                                                  
 add_17 (Add)                   (None, 46, 46, 128)  0           ['activation_52[0][0]',          
                                                                  'bn2b_branch2c[0][0]']          
                                                                                                  
 activation_55 (Activation)     (None, 46, 46, 128)  0           ['add_17[0][0]']                 
                                                                                                  
 res2c_branch2a (Conv2D)        (None, 46, 46, 32)   4128        ['activation_55[0][0]']          
                                                                                                  
 bn2c_branch2a (BatchNormalizat  (None, 46, 46, 32)  128         ['res2c_branch2a[0][0]']         
 ion)                                                                                             
                                                                                                  
 activation_56 (Activation)     (None, 46, 46, 32)   0           ['bn2c_branch2a[0][0]']          
                                                                                                  
 res2c_branch2b (Conv2D)        (None, 46, 46, 32)   9248        ['activation_56[0][0]']          
                                                                                                  
 bn2c_branch2b (BatchNormalizat  (None, 46, 46, 32)  128         ['res2c_branch2b[0][0]']         
 ion)                                                                                             
                                                                                                  
 activation_57 (Activation)     (None, 46, 46, 32)   0           ['bn2c_branch2b[0][0]']          
                                                                                                  
 res2c_branch2c (Conv2D)        (None, 46, 46, 128)  4224        ['activation_57[0][0]']          
                                                                                                  
 bn2c_branch2c (BatchNormalizat  (None, 46, 46, 128)  512        ['res2c_branch2c[0][0]']         
 ion)                                                                                             
                                                                                                  
 add_18 (Add)                   (None, 46, 46, 128)  0           ['activation_55[0][0]',          
                                                                  'bn2c_branch2c[0][0]']          
                                                                                                  
 activation_58 (Activation)     (None, 46, 46, 128)  0           ['add_18[0][0]']                 
                                                                                                  
 res3a_branch2a (Conv2D)        (None, 23, 23, 64)   8256        ['activation_58[0][0]']          
                                                                                                  
 bn3a_branch2a (BatchNormalizat  (None, 23, 23, 64)  256         ['res3a_branch2a[0][0]']         
 ion)                                                                                             
                                                                                                  
 activation_59 (Activation)     (None, 23, 23, 64)   0           ['bn3a_branch2a[0][0]']          
                                                                                                  
 res3a_branch2b (Conv2D)        (None, 23, 23, 64)   36928       ['activation_59[0][0]']          
                                                                                                  
 bn3a_branch2b (BatchNormalizat  (None, 23, 23, 64)  256         ['res3a_branch2b[0][0]']         
 ion)                                                                                             
                                                                                                  
 activation_60 (Activation)     (None, 23, 23, 64)   0           ['bn3a_branch2b[0][0]']          
                                                                                                  
 res3a_branch1 (Conv2D)         (None, 23, 23, 256)  33024       ['activation_58[0][0]']          
                                                                                                  
 res3a_branch2c (Conv2D)        (None, 23, 23, 256)  16640       ['activation_60[0][0]']          
                                                                                                  
 bn3a_branch1 (BatchNormalizati  (None, 23, 23, 256)  1024       ['res3a_branch1[0][0]']          
 on)                                                                                              
                                                                                                  
 bn3a_branch2c (BatchNormalizat  (None, 23, 23, 256)  1024       ['res3a_branch2c[0][0]']         
 ion)                                                                                             
                                                                                                  
 add_19 (Add)                   (None, 23, 23, 256)  0           ['bn3a_branch1[0][0]',           
                                                                  'bn3a_branch2c[0][0]']          
                                                                                                  
 activation_61 (Activation)     (None, 23, 23, 256)  0           ['add_19[0][0]']                 
                                                                                                  
 res3b_branch2a (Conv2D)        (None, 23, 23, 64)   16448       ['activation_61[0][0]']          
                                                                                                  
 bn3b_branch2a (BatchNormalizat  (None, 23, 23, 64)  256         ['res3b_branch2a[0][0]']         
 ion)                                                                                             
                                                                                                  
 activation_62 (Activation)     (None, 23, 23, 64)   0           ['bn3b_branch2a[0][0]']          
                                                                                                  
 res3b_branch2b (Conv2D)        (None, 23, 23, 64)   36928       ['activation_62[0][0]']          
                                                                                                  
 bn3b_branch2b (BatchNormalizat  (None, 23, 23, 64)  256         ['res3b_branch2b[0][0]']         
 ion)                                                                                             
                                                                                                  
 activation_63 (Activation)     (None, 23, 23, 64)   0           ['bn3b_branch2b[0][0]']          
                                                                                                  
 res3b_branch2c (Conv2D)        (None, 23, 23, 256)  16640       ['activation_63[0][0]']          
                                                                                                  
 bn3b_branch2c (BatchNormalizat  (None, 23, 23, 256)  1024       ['res3b_branch2c[0][0]']         
 ion)                                                                                             
                                                                                                  
 add_20 (Add)                   (None, 23, 23, 256)  0           ['activation_61[0][0]',          
                                                                  'bn3b_branch2c[0][0]']          
                                                                                                  
 activation_64 (Activation)     (None, 23, 23, 256)  0           ['add_20[0][0]']                 
                                                                                                  
 res3c_branch2a (Conv2D)        (None, 23, 23, 64)   16448       ['activation_64[0][0]']          
                                                                                                  
 bn3c_branch2a (BatchNormalizat  (None, 23, 23, 64)  256         ['res3c_branch2a[0][0]']         
 ion)                                                                                             
                                                                                                  
 activation_65 (Activation)     (None, 23, 23, 64)   0           ['bn3c_branch2a[0][0]']          
                                                                                                  
 res3c_branch2b (Conv2D)        (None, 23, 23, 64)   36928       ['activation_65[0][0]']          
                                                                                                  
 bn3c_branch2b (BatchNormalizat  (None, 23, 23, 64)  256         ['res3c_branch2b[0][0]']         
 ion)                                                                                             
                                                                                                  
 activation_66 (Activation)     (None, 23, 23, 64)   0           ['bn3c_branch2b[0][0]']          
                                                                                                  
 res3c_branch2c (Conv2D)        (None, 23, 23, 256)  16640       ['activation_66[0][0]']          
                                                                                                  
 bn3c_branch2c (BatchNormalizat  (None, 23, 23, 256)  1024       ['res3c_branch2c[0][0]']         
 ion)                                                                                             
                                                                                                  
 add_21 (Add)                   (None, 23, 23, 256)  0           ['activation_64[0][0]',          
                                                                  'bn3c_branch2c[0][0]']          
                                                                                                  
 activation_67 (Activation)     (None, 23, 23, 256)  0           ['add_21[0][0]']                 
                                                                                                  
 res3d_branch2a (Conv2D)        (None, 23, 23, 64)   16448       ['activation_67[0][0]']          
                                                                                                  
 bn3d_branch2a (BatchNormalizat  (None, 23, 23, 64)  256         ['res3d_branch2a[0][0]']         
 ion)                                                                                             
                                                                                                  
 activation_68 (Activation)     (None, 23, 23, 64)   0           ['bn3d_branch2a[0][0]']          
                                                                                                  
 res3d_branch2b (Conv2D)        (None, 23, 23, 64)   36928       ['activation_68[0][0]']          
                                                                                                  
 bn3d_branch2b (BatchNormalizat  (None, 23, 23, 64)  256         ['res3d_branch2b[0][0]']         
 ion)                                                                                             
                                                                                                  
 activation_69 (Activation)     (None, 23, 23, 64)   0           ['bn3d_branch2b[0][0]']          
                                                                                                  
 res3d_branch2c (Conv2D)        (None, 23, 23, 256)  16640       ['activation_69[0][0]']          
                                                                                                  
 bn3d_branch2c (BatchNormalizat  (None, 23, 23, 256)  1024       ['res3d_branch2c[0][0]']         
 ion)                                                                                             
                                                                                                  
 add_22 (Add)                   (None, 23, 23, 256)  0           ['activation_67[0][0]',          
                                                                  'bn3d_branch2c[0][0]']          
                                                                                                  
 activation_70 (Activation)     (None, 23, 23, 256)  0           ['add_22[0][0]']                 
                                                                                                  
 res4a_branch2a (Conv2D)        (None, 12, 12, 128)  32896       ['activation_70[0][0]']          
                                                                                                  
 bn4a_branch2a (BatchNormalizat  (None, 12, 12, 128)  512        ['res4a_branch2a[0][0]']         
 ion)                                                                                             
                                                                                                  
 activation_71 (Activation)     (None, 12, 12, 128)  0           ['bn4a_branch2a[0][0]']          
                                                                                                  
 res4a_branch2b (Conv2D)        (None, 12, 12, 128)  147584      ['activation_71[0][0]']          
                                                                                                  
 bn4a_branch2b (BatchNormalizat  (None, 12, 12, 128)  512        ['res4a_branch2b[0][0]']         
 ion)                                                                                             
                                                                                                  
 activation_72 (Activation)     (None, 12, 12, 128)  0           ['bn4a_branch2b[0][0]']          
                                                                                                  
 res4a_branch1 (Conv2D)         (None, 12, 12, 512)  131584      ['activation_70[0][0]']          
                                                                                                  
 res4a_branch2c (Conv2D)        (None, 12, 12, 512)  66048       ['activation_72[0][0]']          
                                                                                                  
 bn4a_branch1 (BatchNormalizati  (None, 12, 12, 512)  2048       ['res4a_branch1[0][0]']          
 on)                                                                                              
                                                                                                  
 bn4a_branch2c (BatchNormalizat  (None, 12, 12, 512)  2048       ['res4a_branch2c[0][0]']         
 ion)                                                                                             
                                                                                                  
 add_23 (Add)                   (None, 12, 12, 512)  0           ['bn4a_branch1[0][0]',           
                                                                  'bn4a_branch2c[0][0]']          
                                                                                                  
 activation_73 (Activation)     (None, 12, 12, 512)  0           ['add_23[0][0]']                 
                                                                                                  
 res4b_branch2a (Conv2D)        (None, 12, 12, 128)  65664       ['activation_73[0][0]']          
                                                                                                  
 bn4b_branch2a (BatchNormalizat  (None, 12, 12, 128)  512        ['res4b_branch2a[0][0]']         
 ion)                                                                                             
                                                                                                  
 activation_74 (Activation)     (None, 12, 12, 128)  0           ['bn4b_branch2a[0][0]']          
                                                                                                  
 res4b_branch2b (Conv2D)        (None, 12, 12, 128)  147584      ['activation_74[0][0]']          
                                                                                                  
 bn4b_branch2b (BatchNormalizat  (None, 12, 12, 128)  512        ['res4b_branch2b[0][0]']         
 ion)                                                                                             
                                                                                                  
 activation_75 (Activation)     (None, 12, 12, 128)  0           ['bn4b_branch2b[0][0]']          
                                                                                                  
 res4b_branch2c (Conv2D)        (None, 12, 12, 512)  66048       ['activation_75[0][0]']          
                                                                                                  
 bn4b_branch2c (BatchNormalizat  (None, 12, 12, 512)  2048       ['res4b_branch2c[0][0]']         
 ion)                                                                                             
                                                                                                  
 add_24 (Add)                   (None, 12, 12, 512)  0           ['activation_73[0][0]',          
                                                                  'bn4b_branch2c[0][0]']          
                                                                                                  
 activation_76 (Activation)     (None, 12, 12, 512)  0           ['add_24[0][0]']                 
                                                                                                  
 res4c_branch2a (Conv2D)        (None, 12, 12, 128)  65664       ['activation_76[0][0]']          
                                                                                                  
 bn4c_branch2a (BatchNormalizat  (None, 12, 12, 128)  512        ['res4c_branch2a[0][0]']         
 ion)                                                                                             
                                                                                                  
 activation_77 (Activation)     (None, 12, 12, 128)  0           ['bn4c_branch2a[0][0]']          
                                                                                                  
 res4c_branch2b (Conv2D)        (None, 12, 12, 128)  147584      ['activation_77[0][0]']          
                                                                                                  
 bn4c_branch2b (BatchNormalizat  (None, 12, 12, 128)  512        ['res4c_branch2b[0][0]']         
 ion)                                                                                             
                                                                                                  
 activation_78 (Activation)     (None, 12, 12, 128)  0           ['bn4c_branch2b[0][0]']          
                                                                                                  
 res4c_branch2c (Conv2D)        (None, 12, 12, 512)  66048       ['activation_78[0][0]']          
                                                                                                  
 bn4c_branch2c (BatchNormalizat  (None, 12, 12, 512)  2048       ['res4c_branch2c[0][0]']         
 ion)                                                                                             
                                                                                                  
 add_25 (Add)                   (None, 12, 12, 512)  0           ['activation_76[0][0]',          
                                                                  'bn4c_branch2c[0][0]']          
                                                                                                  
 activation_79 (Activation)     (None, 12, 12, 512)  0           ['add_25[0][0]']                 
                                                                                                  
 res4d_branch2a (Conv2D)        (None, 12, 12, 128)  65664       ['activation_79[0][0]']          
                                                                                                  
 bn4d_branch2a (BatchNormalizat  (None, 12, 12, 128)  512        ['res4d_branch2a[0][0]']         
 ion)                                                                                             
                                                                                                  
 activation_80 (Activation)     (None, 12, 12, 128)  0           ['bn4d_branch2a[0][0]']          
                                                                                                  
 res4d_branch2b (Conv2D)        (None, 12, 12, 128)  147584      ['activation_80[0][0]']          
                                                                                                  
 bn4d_branch2b (BatchNormalizat  (None, 12, 12, 128)  512        ['res4d_branch2b[0][0]']         
 ion)                                                                                             
                                                                                                  
 activation_81 (Activation)     (None, 12, 12, 128)  0           ['bn4d_branch2b[0][0]']          
                                                                                                  
 res4d_branch2c (Conv2D)        (None, 12, 12, 512)  66048       ['activation_81[0][0]']          
                                                                                                  
 bn4d_branch2c (BatchNormalizat  (None, 12, 12, 512)  2048       ['res4d_branch2c[0][0]']         
 ion)                                                                                             
                                                                                                  
 add_26 (Add)                   (None, 12, 12, 512)  0           ['activation_79[0][0]',          
                                                                  'bn4d_branch2c[0][0]']          
                                                                                                  
 activation_82 (Activation)     (None, 12, 12, 512)  0           ['add_26[0][0]']                 
                                                                                                  
 res4e_branch2a (Conv2D)        (None, 12, 12, 128)  65664       ['activation_82[0][0]']          
                                                                                                  
 bn4e_branch2a (BatchNormalizat  (None, 12, 12, 128)  512        ['res4e_branch2a[0][0]']         
 ion)                                                                                             
                                                                                                  
 activation_83 (Activation)     (None, 12, 12, 128)  0           ['bn4e_branch2a[0][0]']          
                                                                                                  
 res4e_branch2b (Conv2D)        (None, 12, 12, 128)  147584      ['activation_83[0][0]']          
                                                                                                  
 bn4e_branch2b (BatchNormalizat  (None, 12, 12, 128)  512        ['res4e_branch2b[0][0]']         
 ion)                                                                                             
                                                                                                  
 activation_84 (Activation)     (None, 12, 12, 128)  0           ['bn4e_branch2b[0][0]']          
                                                                                                  
 res4e_branch2c (Conv2D)        (None, 12, 12, 512)  66048       ['activation_84[0][0]']          
                                                                                                  
 bn4e_branch2c (BatchNormalizat  (None, 12, 12, 512)  2048       ['res4e_branch2c[0][0]']         
 ion)                                                                                             
                                                                                                  
 add_27 (Add)                   (None, 12, 12, 512)  0           ['activation_82[0][0]',          
                                                                  'bn4e_branch2c[0][0]']          
                                                                                                  
 activation_85 (Activation)     (None, 12, 12, 512)  0           ['add_27[0][0]']                 
                                                                                                  
 res4f_branch2a (Conv2D)        (None, 12, 12, 128)  65664       ['activation_85[0][0]']          
                                                                                                  
 bn4f_branch2a (BatchNormalizat  (None, 12, 12, 128)  512        ['res4f_branch2a[0][0]']         
 ion)                                                                                             
                                                                                                  
 activation_86 (Activation)     (None, 12, 12, 128)  0           ['bn4f_branch2a[0][0]']          
                                                                                                  
 res4f_branch2b (Conv2D)        (None, 12, 12, 128)  147584      ['activation_86[0][0]']          
                                                                                                  
 bn4f_branch2b (BatchNormalizat  (None, 12, 12, 128)  512        ['res4f_branch2b[0][0]']         
 ion)                                                                                             
                                                                                                  
 activation_87 (Activation)     (None, 12, 12, 128)  0           ['bn4f_branch2b[0][0]']          
                                                                                                  
 res4f_branch2c (Conv2D)        (None, 12, 12, 512)  66048       ['activation_87[0][0]']          
                                                                                                  
 bn4f_branch2c (BatchNormalizat  (None, 12, 12, 512)  2048       ['res4f_branch2c[0][0]']         
 ion)                                                                                             
                                                                                                  
 add_28 (Add)                   (None, 12, 12, 512)  0           ['activation_85[0][0]',          
                                                                  'bn4f_branch2c[0][0]']          
                                                                                                  
 activation_88 (Activation)     (None, 12, 12, 512)  0           ['add_28[0][0]']                 
                                                                                                  
 res5a_branch2a (Conv2D)        (None, 6, 6, 256)    131328      ['activation_88[0][0]']          
                                                                                                  
 bn5a_branch2a (BatchNormalizat  (None, 6, 6, 256)   1024        ['res5a_branch2a[0][0]']         
 ion)                                                                                             
                                                                                                  
 activation_89 (Activation)     (None, 6, 6, 256)    0           ['bn5a_branch2a[0][0]']          
                                                                                                  
 res5a_branch2b (Conv2D)        (None, 6, 6, 256)    590080      ['activation_89[0][0]']          
                                                                                                  
 bn5a_branch2b (BatchNormalizat  (None, 6, 6, 256)   1024        ['res5a_branch2b[0][0]']         
 ion)                                                                                             
                                                                                                  
 activation_90 (Activation)     (None, 6, 6, 256)    0           ['bn5a_branch2b[0][0]']          
                                                                                                  
 res5a_branch1 (Conv2D)         (None, 6, 6, 1024)   525312      ['activation_88[0][0]']          
                                                                                                  
 res5a_branch2c (Conv2D)        (None, 6, 6, 1024)   263168      ['activation_90[0][0]']          
                                                                                                  
 bn5a_branch1 (BatchNormalizati  (None, 6, 6, 1024)  4096        ['res5a_branch1[0][0]']          
 on)                                                                                              
                                                                                                  
 bn5a_branch2c (BatchNormalizat  (None, 6, 6, 1024)  4096        ['res5a_branch2c[0][0]']         
 ion)                                                                                             
                                                                                                  
 add_29 (Add)                   (None, 6, 6, 1024)   0           ['bn5a_branch1[0][0]',           
                                                                  'bn5a_branch2c[0][0]']          
                                                                                                  
 activation_91 (Activation)     (None, 6, 6, 1024)   0           ['add_29[0][0]']                 
                                                                                                  
 res5b_branch2a (Conv2D)        (None, 6, 6, 256)    262400      ['activation_91[0][0]']          
                                                                                                  
 bn5b_branch2a (BatchNormalizat  (None, 6, 6, 256)   1024        ['res5b_branch2a[0][0]']         
 ion)                                                                                             
                                                                                                  
 activation_92 (Activation)     (None, 6, 6, 256)    0           ['bn5b_branch2a[0][0]']          
                                                                                                  
 res5b_branch2b (Conv2D)        (None, 6, 6, 256)    590080      ['activation_92[0][0]']          
                                                                                                  
 bn5b_branch2b (BatchNormalizat  (None, 6, 6, 256)   1024        ['res5b_branch2b[0][0]']         
 ion)                                                                                             
                                                                                                  
 activation_93 (Activation)     (None, 6, 6, 256)    0           ['bn5b_branch2b[0][0]']          
                                                                                                  
 res5b_branch2c (Conv2D)        (None, 6, 6, 1024)   263168      ['activation_93[0][0]']          
                                                                                                  
 bn5b_branch2c (BatchNormalizat  (None, 6, 6, 1024)  4096        ['res5b_branch2c[0][0]']         
 ion)                                                                                             
                                                                                                  
 add_30 (Add)                   (None, 6, 6, 1024)   0           ['activation_91[0][0]',          
                                                                  'bn5b_branch2c[0][0]']          
                                                                                                  
 activation_94 (Activation)     (None, 6, 6, 1024)   0           ['add_30[0][0]']                 
                                                                                                  
 res5c_branch2a (Conv2D)        (None, 6, 6, 256)    262400      ['activation_94[0][0]']          
                                                                                                  
 bn5c_branch2a (BatchNormalizat  (None, 6, 6, 256)   1024        ['res5c_branch2a[0][0]']         
 ion)                                                                                             
                                                                                                  
 activation_95 (Activation)     (None, 6, 6, 256)    0           ['bn5c_branch2a[0][0]']          
                                                                                                  
 res5c_branch2b (Conv2D)        (None, 6, 6, 256)    590080      ['activation_95[0][0]']          
                                                                                                  
 bn5c_branch2b (BatchNormalizat  (None, 6, 6, 256)   1024        ['res5c_branch2b[0][0]']         
 ion)                                                                                             
                                                                                                  
 activation_96 (Activation)     (None, 6, 6, 256)    0           ['bn5c_branch2b[0][0]']          
                                                                                                  
 res5c_branch2c (Conv2D)        (None, 6, 6, 1024)   263168      ['activation_96[0][0]']          
                                                                                                  
 bn5c_branch2c (BatchNormalizat  (None, 6, 6, 1024)  4096        ['res5c_branch2c[0][0]']         
 ion)                                                                                             
                                                                                                  
 add_31 (Add)                   (None, 6, 6, 1024)   0           ['activation_94[0][0]',          
                                                                  'bn5c_branch2c[0][0]']          
                                                                                                  
 activation_97 (Activation)     (None, 6, 6, 1024)   0           ['add_31[0][0]']                 
                                                                                                  
 avg_pool (AveragePooling2D)    (None, 3, 3, 1024)   0           ['activation_97[0][0]']          
                                                                                                  
 flatten_1 (Flatten)            (None, 9216)         0           ['avg_pool[0][0]']               
                                                                                                  
 fc1024 (Dense)                 (None, 512)          4719104     ['flatten_1[0][0]']              
                                                                                                  
 fc7 (Dense)                    (None, 7)            3591        ['fc1024[0][0]']                 
                                                                                                  
==================================================================================================
Total params: 10,646,583
Trainable params: 10,620,071
Non-trainable params: 26,512
__________________________________________________________________________________________________
…
