…
weighted avg       0.94      0.94      0.94      7177

Confusion Matrix
[[ 881    1   17    5   83    0    3]
 [  26   77    0    4    1    1    0]
 [  20    0  918    1   51   17   17]
 [   0    0    1 1737   19    3   38]
 [   7    0    4    7 1179    0   19]
 [   0    1    9   12    0  772    7]
 [   0    0    3    6   46    0 1184]]

Test accuracy on folder 5
94.02257204055786

Model: "sequential_4"
_________________________________________________________________
 Layer (type)                Output Shape              Param #   
=================================================================
 lambda_4 (Lambda)           (None, 48, 48, 3)         0         
                                                                 
 vgg19 (Functional)          (None, 1, 1, 512)         20024384  
                                                                 
 dropout_12 (Dropout)        (None, 1, 1, 512)         0         
                                                                 
 flatten_4 (Flatten)         (None, 512)               0         
                                                                 
 batch_normalization_16 (Bat  (None, 512)              2048      
 chNormalization)                                                
                                                                 
 dense_16 (Dense)            (None, 32)                16416     
                                                                 
 batch_normalization_17 (Bat  (None, 32)               128       
 chNormalization)                                                
                                                                 
 activation_12 (Activation)  (None, 32)                0         
                                                                 
 dropout_13 (Dropout)        (None, 32)                0         
                                                                 
 dense_17 (Dense)            (None, 32)                1056      
                                                                 
 batch_normalization_18 (Bat  (None, 32)               128       
 chNormalization)                                                
                                                                 
 activation_13 (Activation)  (None, 32)                0         
                                                                 
 dropout_14 (Dropout)        (None, 32)                0         
                                                                 
 dense_18 (Dense)            (None, 32)                1056      
                                                                 
 batch_normalization_19 (Bat  (None, 32)               128       
 chNormalization)                                                
                                                                 
 activation_14 (Activation)  (None, 32)                0         
                                                                 
 dense_19 (Dense)            (None, 7)                 231       
                                                                 
=================================================================
Total params: 20,045,575
Trainable params: 7,099,399
Non-trainable params: 12,946,176
_________________________________________________________________

SUMMARY

Mean accuracy
73.1865406036377

F1-Score
72.13180318007792

Precision
74.52656377761338

Recall
73.18654141645398
…
