…
   macro avg       0.94      0.94      0.94      1488
weighted avg       0.94      0.94      0.94      1488

Confusion Matrix
[[252   1   0   1   0   0]
 [  8 232   1   1  11   1]
 [  5   1 247   0   1   0]
 [ 17   0   6 190   5   0]
 [  6   0  16   4 227   1]
 [  3   2   0   2   1 246]]

Test accuracy on folder 5
93.68279576301575

Model: "sequential"
_________________________________________________________________
 Layer (type)                Output Shape              Param #   
=================================================================
 conv2d (Conv2D)             (None, 14, 1, 96)         23801280  
                                                                 
 batch_normalization (BatchN  (None, 14, 1, 96)        384       
 ormalization)                                                   
                                                                 
 max_pooling2d (MaxPooling2D  (None, 7, 1, 96)         0         
 )                                                               
                                                                 
 conv2d_1 (Conv2D)           (None, 7, 1, 256)         614656    
                                                                 
 batch_normalization_1 (Batc  (None, 7, 1, 256)        1024      
 hNormalization)                                                 
                                                                 
 max_pooling2d_1 (MaxPooling  (None, 4, 1, 256)        0         
 2D)                                                             
                                                                 
 conv2d_2 (Conv2D)           (None, 4, 1, 384)         885120    
                                                                 
 batch_normalization_2 (Batc  (None, 4, 1, 384)        1536      
 hNormalization)                                                 
                                                                 
 conv2d_3 (Conv2D)           (None, 4, 1, 384)         1327488   
                                                                 
 batch_normalization_3 (Batc  (None, 4, 1, 384)        1536      
 hNormalization)                                                 
                                                                 
 conv2d_4 (Conv2D)           (None, 4, 1, 256)         884992    
                                                                 
 batch_normalization_4 (Batc  (None, 4, 1, 256)        1024      
 hNormalization)                                                 
                                                                 
 max_pooling2d_2 (MaxPooling  (None, 2, 1, 256)        0         
 2D)                                                             
                                                                 
 flatten (Flatten)           (None, 512)               0         
                                                                 
 dense (Dense)               (None, 4096)              2101248   
                                                                 
 dropout (Dropout)           (None, 4096)              0         
                                                                 
 dense_1 (Dense)             (None, 4096)              16781312  
                                                                 
 dropout_1 (Dropout)         (None, 4096)              0         
                                                                 
 dense_2 (Dense)             (None, 6)                 24582     
                                                                 
=================================================================
Total params: 46,426,182
Trainable params: 46,423,430
Non-trainable params: 2,752
_________________________________________________________________

SUMMARY

Mean accuracy
77.02873826026917

F1-Score
76.80058200722965

Precision
77.86237896798755
…
