…
   macro avg       0.81      0.79      0.79      1488
weighted avg       0.81      0.79      0.79      1488

Confusion Matrix
[[172  36  12  15  11   8]
 [  2 238   0   3   7   4]
 [  7  32 166  30  19   0]
 [  2  22   1 192   1   0]
 [  7  31  21   8 183   4]
 [  3  15   7   4   4 221]]

Test accuracy on folder 5
78.76344323158264

Model: "sequential"
_________________________________________________________________
 Layer (type)                Output Shape              Param #   
=================================================================
 conv2d (Conv2D)             (None, 14, 1, 96)         151104    
                                                                 
 batch_normalization (BatchN  (None, 14, 1, 96)        384       
 ormalization)                                                   
                                                                 
 max_pooling2d (MaxPooling2D  (None, 7, 1, 96)         0         
 )                                                               
                                                                 
 conv2d_1 (Conv2D)           (None, 7, 1, 256)         614656    
                                                                 
 batch_normalization_1 (Batc  (None, 7, 1, 256)        1024      
 hNormalization)                                                 
                                                                 
 max_pooling2d_1 (MaxPooling  (None, 4, 1, 256)        0         
 2D)                                                             
                                                                 
 conv2d_2 (Conv2D)           (None, 4, 1, 384)         885120    
                                                                 
 batch_normalization_2 (Batc  (None, 4, 1, 384)        1536      
 hNormalization)                                                 
                                                                 
 conv2d_3 (Conv2D)           (None, 4, 1, 384)         1327488   
                                                                 
 batch_normalization_3 (Batc  (None, 4, 1, 384)        1536      
 hNormalization)                                                 
                                                                 
 conv2d_4 (Conv2D)           (None, 4, 1, 256)         884992    
                                                                 
 batch_normalization_4 (Batc  (None, 4, 1, 256)        1024      
 hNormalization)                                                 
                                                                 
 max_pooling2d_2 (MaxPooling  (None, 2, 1, 256)        0         
 2D)                                                             
                                                                 
 flatten (Flatten)           (None, 512)               0         
                                                                 
 dense (Dense)               (None, 4096)              2101248   
                                                                 
 dropout (Dropout)           (None, 4096)              0         
                                                                 
 dense_1 (Dense)             (None, 4096)              16781312  
                                                                 
 dropout_1 (Dropout)         (None, 4096)              0         
                                                                 
 dense_2 (Dense)             (None, 6)                 24582     
                                                                 
=================================================================
Total params: 22,776,006
Trainable params: 22,773,254
Non-trainable params: 2,752
_________________________________________________________________

SUMMARY

Mean accuracy
67.33787953853607

F1-Score
67.24138394103838

Precision
68.61625946704439
…
