…
    accuracy                           0.91        96
   macro avg       0.92      0.90      0.90        96
weighted avg       0.93      0.91      0.91        96

Confusion Matrix
[[ 8  0  4  0  0  0  0]
 [ 0 12  0  0  0  0  0]
 [ 0  0 12  0  0  0  0]
 [ 0  0  0 23  1  0  0]
 [ 0  0  0  0 12  0  0]
 [ 0  1  0  1  0 10  0]
 [ 0  0  2  0  0  0 10]]

Test accuracy on folder 5
90.625

Model: "sequential"
_________________________________________________________________
 Layer (type)                Output Shape              Param #   
=================================================================
 conv2d (Conv2D)             (None, 20, 1, 96)         290496    
                                                                 
 batch_normalization (BatchN  (None, 20, 1, 96)        384       
 ormalization)                                                   
                                                                 
 max_pooling2d (MaxPooling2D  (None, 10, 1, 96)        0         
 )                                                               
                                                                 
 conv2d_1 (Conv2D)           (None, 10, 1, 256)        614656    
                                                                 
 batch_normalization_1 (Batc  (None, 10, 1, 256)       1024      
 hNormalization)                                                 
                                                                 
 max_pooling2d_1 (MaxPooling  (None, 5, 1, 256)        0         
 2D)                                                             
                                                                 
 conv2d_2 (Conv2D)           (None, 5, 1, 384)         885120    
                                                                 
 batch_normalization_2 (Batc  (None, 5, 1, 384)        1536      
 hNormalization)                                                 
                                                                 
 conv2d_3 (Conv2D)           (None, 5, 1, 384)         1327488   
                                                                 
 batch_normalization_3 (Batc  (None, 5, 1, 384)        1536      
 hNormalization)                                                 
                                                                 
 conv2d_4 (Conv2D)           (None, 5, 1, 256)         884992    
                                                                 
 batch_normalization_4 (Batc  (None, 5, 1, 256)        1024      
 hNormalization)                                                 
                                                                 
 max_pooling2d_2 (MaxPooling  (None, 3, 1, 256)        0         
 2D)                                                             
                                                                 
 flatten (Flatten)           (None, 768)               0         
                                                                 
 dense (Dense)               (None, 4096)              3149824   
                                                                 
 dropout (Dropout)           (None, 4096)              0         
                                                                 
 dense_1 (Dense)             (None, 4096)              16781312  
                                                                 
 dropout_1 (Dropout)         (None, 4096)              0         
                                                                 
 dense_2 (Dense)             (None, 7)                 28679     
                                                                 
=================================================================
Total params: 23,968,071
Trainable params: 23,965,319
Non-trainable params: 2,752
_________________________________________________________________

SUMMARY

Mean accuracy
77.08333253860474

F1-Score
75.70405077859219

Precision
82.56407551880297
…
