…
   macro avg       0.61      0.59      0.58      1488
weighted avg       0.62      0.58      0.58      1488

Confusion Matrix
[[ 85  25  44  43  46  11]
 [  6 128   5  32  70  13]
 [  9   5 157  46  37   0]
 [  1   3  10 188  16   0]
 [  6  29  58  21 137   3]
 [ 13  30   6  13  20 172]]

Test accuracy on folder 5
58.26612710952759

Model: "sequential"
_________________________________________________________________
 Layer (type)                Output Shape              Param #   
=================================================================
 conv2d (Conv2D)             (None, 54, 1, 16)         1616      
                                                                 
 activation (Activation)     (None, 54, 1, 16)         0         
                                                                 
 max_pooling2d (MaxPooling2D  (None, 27, 1, 16)        0         
 )                                                               
                                                                 
 dropout (Dropout)           (None, 27, 1, 16)         0         
                                                                 
 conv2d_1 (Conv2D)           (None, 27, 1, 32)         2080      
                                                                 
 activation_1 (Activation)   (None, 27, 1, 32)         0         
                                                                 
 max_pooling2d_1 (MaxPooling  (None, 14, 1, 32)        0         
 2D)                                                             
                                                                 
 dropout_1 (Dropout)         (None, 14, 1, 32)         0         
                                                                 
 time_distributed (TimeDistr  (None, 14, 32)           0         
 ibuted)                                                         
                                                                 
 lstm (LSTM)                 (None, 100)               53200     
                                                                 
 dense (Dense)               (None, 6)                 606       
                                                                 
=================================================================
Total params: 57,502
Trainable params: 57,502
Non-trainable params: 0
_________________________________________________________________

SUMMARY

Mean accuracy
57.00203895568847

F1-Score
56.43404785753692

Precision
59.20534887197291

Recall
…
