…
    accuracy                           0.77      1488
   macro avg       0.78      0.78      0.77      1488
weighted avg       0.78      0.77      0.77      1488

Confusion Matrix
[[176   9  28  21  12   8]
 [  5 210   5  18  12   4]
 [ 11   5 190  30  18   0]
 [  3   3  10 196   6   0]
 [ 10  22  47  14 160   1]
 [  6  18   1   6   3 220]]

Test accuracy on folder 5
77.4193525314331

Model: "sequential"
_________________________________________________________________
 Layer (type)                Output Shape              Param #   
=================================================================
 conv2d (Conv2D)             (None, 54, 1, 16)         131984    
                                                                 
 activation (Activation)     (None, 54, 1, 16)         0         
                                                                 
 max_pooling2d (MaxPooling2D  (None, 27, 1, 16)        0         
 )                                                               
                                                                 
 dropout (Dropout)           (None, 27, 1, 16)         0         
                                                                 
 conv2d_1 (Conv2D)           (None, 27, 1, 32)         2080      
                                                                 
 activation_1 (Activation)   (None, 27, 1, 32)         0         
                                                                 
 max_pooling2d_1 (MaxPooling  (None, 14, 1, 32)        0         
 2D)                                                             
                                                                 
 dropout_1 (Dropout)         (None, 14, 1, 32)         0         
                                                                 
 time_distributed (TimeDistr  (None, 14, 32)           0         
 ibuted)                                                         
                                                                 
 lstm (LSTM)                 (None, 100)               53200     
                                                                 
 dense (Dense)               (None, 6)                 606       
                                                                 
=================================================================
Total params: 187,870
Trainable params: 187,870
Non-trainable params: 0
_________________________________________________________________

SUMMARY

Mean accuracy
63.96480143070221

F1-Score
63.81242025323335

Precision
65.07164892513234

Recall
…
