…
   macro avg       0.50      0.50      0.50      1488
weighted avg       0.51      0.50      0.50      1488

Confusion Matrix
[[136  25  38  19  15  21]
 [ 12 131  26  27  28  30]
 [ 29  20 138  27  23  17]
 [ 25  21  36  94  13  29]
 [ 20  24  43  35 112  20]
 [ 27  33  15  32  10 137]]

Test accuracy on folder 5
50.26881694793701

Model: "sequential"
_________________________________________________________________
 Layer (type)                Output Shape              Param #   
=================================================================
 conv2d (Conv2D)             (None, 54, 1, 16)         784       
                                                                 
 activation (Activation)     (None, 54, 1, 16)         0         
                                                                 
 max_pooling2d (MaxPooling2D  (None, 27, 1, 16)        0         
 )                                                               
                                                                 
 dropout (Dropout)           (None, 27, 1, 16)         0         
                                                                 
 conv2d_1 (Conv2D)           (None, 27, 1, 32)         2080      
                                                                 
 activation_1 (Activation)   (None, 27, 1, 32)         0         
                                                                 
 max_pooling2d_1 (MaxPooling  (None, 14, 1, 32)        0         
 2D)                                                             
                                                                 
 dropout_1 (Dropout)         (None, 14, 1, 32)         0         
                                                                 
 time_distributed (TimeDistr  (None, 14, 32)           0         
 ibuted)                                                         
                                                                 
 lstm (LSTM)                 (None, 100)               53200     
                                                                 
 dense (Dense)               (None, 6)                 606       
                                                                 
=================================================================
Total params: 56,670
Trainable params: 56,670
Non-trainable params: 0
_________________________________________________________________

SUMMARY

Mean accuracy
35.12696087360382

F1-Score
34.50525558668327

Precision
35.40765860122761

Recall
…
