…
   macro avg       0.62      0.61      0.60      1488
weighted avg       0.62      0.60      0.60      1488

Confusion Matrix
[[127  17  32  33  30  15]
 [ 16 122   7  18  73  18]
 [  6   4 161  50  33   0]
 [  6   8   6 173  25   0]
 [ 10  30  38  34 138   4]
 [ 17  23   2  14  25 173]]

Test accuracy on folder 5
60.080647468566895

Model: "sequential"
_________________________________________________________________
 Layer (type)                Output Shape              Param #   
=================================================================
 conv2d (Conv2D)             (None, 54, 1, 16)         848       
                                                                 
 activation (Activation)     (None, 54, 1, 16)         0         
                                                                 
 max_pooling2d (MaxPooling2D  (None, 27, 1, 16)        0         
 )                                                               
                                                                 
 dropout (Dropout)           (None, 27, 1, 16)         0         
                                                                 
 conv2d_1 (Conv2D)           (None, 27, 1, 32)         2080      
                                                                 
 activation_1 (Activation)   (None, 27, 1, 32)         0         
                                                                 
 max_pooling2d_1 (MaxPooling  (None, 14, 1, 32)        0         
 2D)                                                             
                                                                 
 dropout_1 (Dropout)         (None, 14, 1, 32)         0         
                                                                 
 time_distributed (TimeDistr  (None, 14, 32)           0         
 ibuted)                                                         
                                                                 
 lstm (LSTM)                 (None, 100)               53200     
                                                                 
 dense (Dense)               (None, 6)                 606       
                                                                 
=================================================================
Total params: 56,734
Trainable params: 56,734
Non-trainable params: 0
_________________________________________________________________

SUMMARY

Mean accuracy
55.537346601486206

F1-Score
54.87973369519133

Precision
57.90339323000532

Recall
…
