…
   macro avg       0.83      0.83      0.83      1488
weighted avg       0.83      0.83      0.83      1488

Confusion Matrix
[[193  14  16   9   9  13]
 [  6 222   2   2  12  10]
 [ 10   8 187  20  29   0]
 [  3   9   4 196   6   0]
 [  1  17  29   6 198   3]
 [  5   7   2   1   3 236]]

Test accuracy on folder 5
82.79569745063782

Model: "sequential"
_________________________________________________________________
 Layer (type)                Output Shape              Param #   
=================================================================
 conv2d (Conv2D)             (None, 14, 1, 96)         290496    
                                                                 
 batch_normalization (BatchN  (None, 14, 1, 96)        384       
 ormalization)                                                   
                                                                 
 max_pooling2d (MaxPooling2D  (None, 7, 1, 96)         0         
 )                                                               
                                                                 
 conv2d_1 (Conv2D)           (None, 7, 1, 256)         614656    
                                                                 
 batch_normalization_1 (Batc  (None, 7, 1, 256)        1024      
 hNormalization)                                                 
                                                                 
 max_pooling2d_1 (MaxPooling  (None, 4, 1, 256)        0         
 2D)                                                             
                                                                 
 conv2d_2 (Conv2D)           (None, 4, 1, 384)         885120    
                                                                 
 batch_normalization_2 (Batc  (None, 4, 1, 384)        1536      
 hNormalization)                                                 
                                                                 
 conv2d_3 (Conv2D)           (None, 4, 1, 384)         1327488   
                                                                 
 batch_normalization_3 (Batc  (None, 4, 1, 384)        1536      
 hNormalization)                                                 
                                                                 
 conv2d_4 (Conv2D)           (None, 4, 1, 256)         884992    
                                                                 
 batch_normalization_4 (Batc  (None, 4, 1, 256)        1024      
 hNormalization)                                                 
                                                                 
 max_pooling2d_2 (MaxPooling  (None, 2, 1, 256)        0         
 2D)                                                             
                                                                 
 flatten (Flatten)           (None, 512)               0         
                                                                 
 dense (Dense)               (None, 4096)              2101248   
                                                                 
 dropout (Dropout)           (None, 4096)              0         
                                                                 
 dense_1 (Dense)             (None, 4096)              16781312  
                                                                 
 dropout_1 (Dropout)         (None, 4096)              0         
                                                                 
 dense_2 (Dense)             (None, 6)                 24582     
                                                                 
=================================================================
Total params: 22,915,398
Trainable params: 22,912,646
Non-trainable params: 2,752
_________________________________________________________________

SUMMARY

Mean accuracy
65.00018954277039

F1-Score
64.60099575420844

Precision
67.08575653339223
…
