…
   macro avg       0.65      0.65      0.64      1488
weighted avg       0.65      0.64      0.64      1488

Confusion Matrix
[[139  18  44  28  15  10]
 [ 29 139   7  28  27  24]
 [ 13   5 187  29  20   0]
 [  9   6  21 174   5   3]
 [ 10  27  60  24 122  11]
 [ 19  22   4   4   7 198]]

Test accuracy on folder 5
64.44892287254333

Model: "sequential"
_________________________________________________________________
 Layer (type)                Output Shape              Param #   
=================================================================
 conv2d (Conv2D)             (None, 54, 1, 16)         9040      
                                                                 
 activation (Activation)     (None, 54, 1, 16)         0         
                                                                 
 max_pooling2d (MaxPooling2D  (None, 27, 1, 16)        0         
 )                                                               
                                                                 
 dropout (Dropout)           (None, 27, 1, 16)         0         
                                                                 
 conv2d_1 (Conv2D)           (None, 27, 1, 32)         2080      
                                                                 
 activation_1 (Activation)   (None, 27, 1, 32)         0         
                                                                 
 max_pooling2d_1 (MaxPooling  (None, 14, 1, 32)        0         
 2D)                                                             
                                                                 
 dropout_1 (Dropout)         (None, 14, 1, 32)         0         
                                                                 
 time_distributed (TimeDistr  (None, 14, 32)           0         
 ibuted)                                                         
                                                                 
 lstm (LSTM)                 (None, 100)               53200     
                                                                 
 dense (Dense)               (None, 6)                 606       
                                                                 
=================================================================
Total params: 64,926
Trainable params: 64,926
Non-trainable params: 0
_________________________________________________________________

SUMMARY

Mean accuracy
58.964232206344604

F1-Score
58.320112474131946

Precision
59.803258259247436

Recall
…
