…
   macro avg       0.90      0.86      0.86      1488
weighted avg       0.90      0.86      0.86      1488

Confusion Matrix
[[181   0  19   1  52   1]
 [  1 217   0   0  35   1]
 [  0   0 224   0  30   0]
 [  0   2  20 161  35   0]
 [  0   0   0   0 254   0]
 [  1   3   0   1   7 242]]

Test accuracy on folder 5
85.95430254936218

Model: "sequential"
_________________________________________________________________
 Layer (type)                Output Shape              Param #   
=================================================================
 conv2d (Conv2D)             (None, 14, 1, 96)         23952288  
                                                                 
 batch_normalization (BatchN  (None, 14, 1, 96)        384       
 ormalization)                                                   
                                                                 
 max_pooling2d (MaxPooling2D  (None, 7, 1, 96)         0         
 )                                                               
                                                                 
 conv2d_1 (Conv2D)           (None, 7, 1, 256)         614656    
                                                                 
 batch_normalization_1 (Batc  (None, 7, 1, 256)        1024      
 hNormalization)                                                 
                                                                 
 max_pooling2d_1 (MaxPooling  (None, 4, 1, 256)        0         
 2D)                                                             
                                                                 
 conv2d_2 (Conv2D)           (None, 4, 1, 384)         885120    
                                                                 
 batch_normalization_2 (Batc  (None, 4, 1, 384)        1536      
 hNormalization)                                                 
                                                                 
 conv2d_3 (Conv2D)           (None, 4, 1, 384)         1327488   
                                                                 
 batch_normalization_3 (Batc  (None, 4, 1, 384)        1536      
 hNormalization)                                                 
                                                                 
 conv2d_4 (Conv2D)           (None, 4, 1, 256)         884992    
                                                                 
 batch_normalization_4 (Batc  (None, 4, 1, 256)        1024      
 hNormalization)                                                 
                                                                 
 max_pooling2d_2 (MaxPooling  (None, 2, 1, 256)        0         
 2D)                                                             
                                                                 
 flatten (Flatten)           (None, 512)               0         
                                                                 
 dense (Dense)               (None, 4096)              2101248   
                                                                 
 dropout (Dropout)           (None, 4096)              0         
                                                                 
 dense_1 (Dense)             (None, 4096)              16781312  
                                                                 
 dropout_1 (Dropout)         (None, 4096)              0         
                                                                 
 dense_2 (Dense)             (None, 6)                 24582     
                                                                 
=================================================================
Total params: 46,577,190
Trainable params: 46,574,438
Non-trainable params: 2,752
_________________________________________________________________

SUMMARY

Mean accuracy
65.63246011734009

F1-Score
64.12482952496939

Precision
71.56666145038116
…
