…
    accuracy                           0.62      1488
   macro avg       0.80      0.63      0.61      1488
weighted avg       0.79      0.62      0.61      1488

Confusion Matrix
[[251   0   0   3   0   0]
 [ 40 199   0   4   0  11]
 [223   0  25   6   0   0]
 [ 68   3   0 144   0   3]
 [111  25   5   7  99   7]
 [ 27   9   0   4   2 212]]

Test accuracy on folder 5
62.5

Model: "sequential"
_________________________________________________________________
 Layer (type)                Output Shape              Param #   
=================================================================
 conv2d (Conv2D)             (None, 14, 1, 96)         1486944   
                                                                 
 batch_normalization (BatchN  (None, 14, 1, 96)        384       
 ormalization)                                                   
                                                                 
 max_pooling2d (MaxPooling2D  (None, 7, 1, 96)         0         
 )                                                               
                                                                 
 conv2d_1 (Conv2D)           (None, 7, 1, 256)         614656    
                                                                 
 batch_normalization_1 (Batc  (None, 7, 1, 256)        1024      
 hNormalization)                                                 
                                                                 
 max_pooling2d_1 (MaxPooling  (None, 4, 1, 256)        0         
 2D)                                                             
                                                                 
 conv2d_2 (Conv2D)           (None, 4, 1, 384)         885120    
                                                                 
 batch_normalization_2 (Batc  (None, 4, 1, 384)        1536      
 hNormalization)                                                 
                                                                 
 conv2d_3 (Conv2D)           (None, 4, 1, 384)         1327488   
                                                                 
 batch_normalization_3 (Batc  (None, 4, 1, 384)        1536      
 hNormalization)                                                 
                                                                 
 conv2d_4 (Conv2D)           (None, 4, 1, 256)         884992    
                                                                 
 batch_normalization_4 (Batc  (None, 4, 1, 256)        1024      
 hNormalization)                                                 
                                                                 
 max_pooling2d_2 (MaxPooling  (None, 2, 1, 256)        0         
 2D)                                                             
                                                                 
 flatten (Flatten)           (None, 512)               0         
                                                                 
 dense (Dense)               (None, 4096)              2101248   
                                                                 
 dropout (Dropout)           (None, 4096)              0         
                                                                 
 dense_1 (Dense)             (None, 4096)              16781312  
                                                                 
 dropout_1 (Dropout)         (None, 4096)              0         
                                                                 
 dense_2 (Dense)             (None, 6)                 24582     
                                                                 
=================================================================
Total params: 24,111,846
Trainable params: 24,109,094
Non-trainable params: 2,752
_________________________________________________________________

SUMMARY

Mean accuracy
49.33126151561737

F1-Score
46.27911743053257

Precision
63.65833371557477
…
