…
    accuracy                           0.88        96
   macro avg       0.87      0.87      0.87        96
weighted avg       0.88      0.88      0.87        96

Confusion Matrix
[[11  0  0  1  0  0  0]
 [ 0 12  0  0  0  0  0]
 [ 1  0 10  0  1  0  0]
 [ 0  0  2 22  0  0  0]
 [ 0  1  0  0 10  0  1]
 [ 0  1  0  0  0 10  1]
 [ 0  1  0  0  1  1  9]]

Test accuracy on folder 5
87.5

Model: "sequential"
_________________________________________________________________
 Layer (type)                Output Shape              Param #   
=================================================================
 conv2d (Conv2D)             (None, 77, 1, 16)         1616      
                                                                 
 activation (Activation)     (None, 77, 1, 16)         0         
                                                                 
 max_pooling2d (MaxPooling2D  (None, 39, 1, 16)        0         
 )                                                               
                                                                 
 dropout (Dropout)           (None, 39, 1, 16)         0         
                                                                 
 conv2d_1 (Conv2D)           (None, 39, 1, 32)         2080      
                                                                 
 activation_1 (Activation)   (None, 39, 1, 32)         0         
                                                                 
 max_pooling2d_1 (MaxPooling  (None, 20, 1, 32)        0         
 2D)                                                             
                                                                 
 dropout_1 (Dropout)         (None, 20, 1, 32)         0         
                                                                 
 time_distributed (TimeDistr  (None, 20, 32)           0         
 ibuted)                                                         
                                                                 
 lstm (LSTM)                 (None, 100)               53200     
                                                                 
 dense (Dense)               (None, 7)                 707       
                                                                 
=================================================================
Total params: 57,603
Trainable params: 57,603
Non-trainable params: 0
_________________________________________________________________

SUMMARY

Mean accuracy
71.45833313465118

F1-Score
69.40691664475202

Precision
71.05107888287236

Recall
…
