…
   macro avg       0.78      0.76      0.76      1488
weighted avg       0.78      0.75      0.76      1488

Confusion Matrix
[[160  20  45  19   9   1]
 [  3 202  15  21  13   0]
 [  4   1 220  13  16   0]
 [  3   3  28 179   5   0]
 [  2  32  39   8 173   0]
 [  6  43   1  11   5 188]]

Test accuracy on folder 5
75.40322542190552

Model: "sequential"
_________________________________________________________________
 Layer (type)                Output Shape              Param #   
=================================================================
 conv2d (Conv2D)             (None, 54, 1, 16)         131152    
                                                                 
 activation (Activation)     (None, 54, 1, 16)         0         
                                                                 
 max_pooling2d (MaxPooling2D  (None, 27, 1, 16)        0         
 )                                                               
                                                                 
 dropout (Dropout)           (None, 27, 1, 16)         0         
                                                                 
 conv2d_1 (Conv2D)           (None, 27, 1, 32)         2080      
                                                                 
 activation_1 (Activation)   (None, 27, 1, 32)         0         
                                                                 
 max_pooling2d_1 (MaxPooling  (None, 14, 1, 32)        0         
 2D)                                                             
                                                                 
 dropout_1 (Dropout)         (None, 14, 1, 32)         0         
                                                                 
 time_distributed (TimeDistr  (None, 14, 32)           0         
 ibuted)                                                         
                                                                 
 lstm (LSTM)                 (None, 100)               53200     
                                                                 
 dense (Dense)               (None, 6)                 606       
                                                                 
=================================================================
Total params: 187,038
Trainable params: 187,038
Non-trainable params: 0
_________________________________________________________________

SUMMARY

Mean accuracy
59.89350199699401

F1-Score
59.94012771307855

Precision
62.70489440152499

Recall
…
