…
   macro avg       0.64      0.63      0.63      1488
weighted avg       0.64      0.63      0.62      1488

Confusion Matrix
[[128  17  52  30  10  17]
 [ 11 145  23  20  27  28]
 [ 16   6 203  14  14   1]
 [  2  15  33 153  14   1]
 [ 12  23  71  15 122  11]
 [ 23  32   7   3   6 183]]

Test accuracy on folder 5
62.76881694793701

Model: "sequential"
_________________________________________________________________
 Layer (type)                Output Shape              Param #   
=================================================================
 conv2d (Conv2D)             (None, 54, 1, 16)         8208      
                                                                 
 activation (Activation)     (None, 54, 1, 16)         0         
                                                                 
 max_pooling2d (MaxPooling2D  (None, 27, 1, 16)        0         
 )                                                               
                                                                 
 dropout (Dropout)           (None, 27, 1, 16)         0         
                                                                 
 conv2d_1 (Conv2D)           (None, 27, 1, 32)         2080      
                                                                 
 activation_1 (Activation)   (None, 27, 1, 32)         0         
                                                                 
 max_pooling2d_1 (MaxPooling  (None, 14, 1, 32)        0         
 2D)                                                             
                                                                 
 dropout_1 (Dropout)         (None, 14, 1, 32)         0         
                                                                 
 time_distributed (TimeDistr  (None, 14, 32)           0         
 ibuted)                                                         
                                                                 
 lstm (LSTM)                 (None, 100)               53200     
                                                                 
 dense (Dense)               (None, 6)                 606       
                                                                 
=================================================================
Total params: 64,094
Trainable params: 64,094
Non-trainable params: 0
_________________________________________________________________

SUMMARY

Mean accuracy
54.516968727111816

F1-Score
53.95589897733718

Precision
55.291497074633014

Recall
…
